resources/python/new_vision_system/models/jit_model.pt (torch, 639978 bytes, 6 tensors)

weight f4 [125, 784]
00000000: 00d7 bbba f0dd b3bb 8417 483c 9f13 063d
00000010: 8362 8cbc deb3 973c c8d4 d83c e4bd 133c
00000020: dc0a 62bc 20ed 8c3a 0d7c 083d 12a4 853c
00000030: 4572 afbc 943f 1a3c ef47 04bd d565 83bc
00000040: 9422 083c 548d c1bb d641 b73c 003e ebba
00000050: b0fd 223b 60cd c7ba 206b 9f3c b064 1d3c
00000060: 9c07 5bbc ca98 e4bc 40bf dd3a 14ec 193c
00000070: 3a16 a3bc 8039 55bb 207b b8bc a27f de3c
00000080: d0cc 583c 266e 65bc 06c6 ea3c 552e eebc
00000090: 08bb e93b 5ee4 b5bc 906e 973c 549c 07bd
000000a0: 60d5 a4ba 550e 0d3d 80d8 353b 10e3 31bb
000000b0: 16d0 f53c 134f 0abd 706e 0c3b 5ef6 dabc
000000c0: 0803 283c c401 3b3c 30f7 db3b 0576 d7bc
000000d0: e410 a7bb 984f 9f3c eccf d2bc b88a dbbb
000000e0: a0ac adba 1780 98bc 5365 0e3d 9c79 acbc
000000f0: 7504 8bbc 0413 543c 60e3 803a e293 04bd
00000100: 6272 fe3c 88d5 4d3c 383f cf3b b258 73bc
00000110: 3cc8 93bc d801 e0bc 10ef 673b 2a84 f93c
00000120: 2e93 e1bc 004e d738 d84e 083c 2eb2 3cbc
00000130: 30c3 18bb 8e81 ed3c 6230 e93c 4afd 9ebc
00000140: 664a 32bc ca9a cbbc e4a9 593c de42 04bd
00000150: c216 12bd ae0a 61bc 6728 0dbd 1595 033d
00000160: 90d7 403b d04d 233c 701d 323b 6401 8d3c
00000170: c3e5 f8bc 7891 e7bb 0c56 fbbc e05c c43c
00000180: d6f0 0ebd e5e0 81bc 5aae eebc bc35 b8bc
00000190: 28b9 0e3c 9f73 10bd 20d8 ddbc 6803 763c
000001a0: 6013 90ba 52d4 bb3c f2e4 fd3c 748c 8c3c
000001b0: 867f 5ebc 4ac3 f3bc 2894 943b a0a7 14bb
000001c0: a274 b23c 8c0f cb3c a688 a33c e04f 9eba
000001d0: a608 b23c 82af e73c 0eee eabc d026 bc3b
000001e0: 7021 ec3b a44e 5a3c 002f cebb 0070 fcbb
000001f0: 7be0 083d 9659 963c 0897 bfbb 1309 f4bc
00000200: cc20 b43c dc9d 723c 00e9 bd3a 179d 06bd
00000210: 44d2 903c d4ed edbb 0999 103d 8259 843c
00000220: b801 00bd 34d6 5f3c c8ae 6b3c 00c4 c93c
00000230: 70d9 b3bc e47f 383c 00b2 6fbb 1a76 df3c
00000240: 2670 1bbc 002f 40bc 9252 ea3c baa8 bb3c
00000250: f868 7c3c 2aef a1bc 4c82 a9bc eb54 0c3d
00000260: bc92 c13c d898 ba3c 6ab7 9e3c 7628 f93c
00000270: a8a3 0d3c a7cd 8bbc a21f 9a3c 34be 753c
00000280: e86d 8abb 6ee5 2ebc c8be a83b 8cb6 11bd
00000290: 0354 05bd d734 04bd 7309 eabc 9ca9 a6bb
000002a0: 94ea f4bb b3ae 80bc ba69 bfbc 62c0 ae3c
000002b0: d0ae 5a3c 45fc b8bc 78ed adbb 3eac fb3c
000002c0: 245b f4bb 642b 4c3c a02b 8cbc 800f f7b9
000002d0: 0088 54b8 c550 b2bc 9051 c03c f34a 093d
000002e0: aa8b c7bc 1bc7 00bd 08d4 b4bb 4ef7 c1bc
000002f0: e0f9 313c 4881 613c 83dc acbc b2ce e93c
00000300: 3e18 0dbd 80a1 b6b9 d38a c2bc 307b 5bbb
00000310: 5030 e93b 29f8 0c3d 4e4f c63c 6edf 5dbc
00000320: 40fc 343a f85d fbbc aa49 61bc 4217 ec3c
00000330: 083c 113c f6ae a63c 614c 103d 9404 113c
00000340: 1621 0dbd bd48 06bd 7e7d f63c 03ed 043d
00000350: a35a ebbc 900a 5c3c a829 c63c 2e71 a3bc
00000360: 3875 043c 20e4 12bc 4af4 a03c 8a04 ac3c
00000370: e05d 273b 6efa f83c dc3d 26bc 8754 08bd
00000380: 409e e1ba 6a86 b83c 5307 91bc 3a99 af3c
00000390: 4ec0 ce3c d0c0 4f3c 129b a93c 8d7a 093d
000003a0: b5d0 b8bc 48d4 753c e0b8 e63b e06a efba
000003b0: 0e8c 4abc 38e4 b7bb 0e80 ca3c 0a74 85bc
000003c0: 00c9 3e3c 1c7f c9bc fe46 9e3c 00de a63c
000003d0: ec91 b43c e076 57bb 7e7c db3c 6e28 1dbc
000003e0: 22d1 9c3c 60fa ebba 1026 bb3b e8c3 f9bc
000003f0: a2c6 dc3c b2a1 04bd dffb 073d 00b0 8fb8
-0.0014331043 -0.0054891035 0.012212638 0.032733556 -0.017136818 0.018518385 0.02646865 0.009017441
-0.013796534 0.0010751821 0.03332143 0.016313586 -0.021416793 0.009414572 -0.032295164 -0.016039768
0.008309025 -0.00590674 0.02237026 -0.0017947555 0.0024870448 -0.0015243702 0.01946026 0.009606525
-0.013368513 -0.027904887 0.0016917959 0.009394664 -0.01990806 -0.0032535493 -0.022519648 0.02716047
0.013232425 -0.014003312 0.028658878 -0.029074827 0.0071328916 -0.02220362 0.018485337 -0.03310807
-0.0012575798 0.034437496 0.0027747452 -0.0027143396 0.03000645 -0.033766817 0.002142813 -0.026728805
0.010254629 0.011413995 0.0067128167 -0.026301393 -0.005098449 0.019447133 -0.02573391 -0.006699886
-0.0013250299 -0.018615765 0.0347646 -0.021054082 -0.016969899 0.012943987 0.0009833388 -0.032367595
0.031060401 0.012563117 0.006324675 -0.01485269 -0.018039815 -0.02734463 0.0035390295 0.030458529
-0.027536001 0.000102665275 0.008319579 -0.011517091 -0.00233097 0.02899244 0.028465454 -0.019407887
-0.010881996 -0.024854083 0.013285134 -0.032290332 -0.035666235 -0.013735456 -0.03446236 0.032124598
0.002942536 0.009967282 0.002717819 0.017212577 -0.030382996 -0.007066902 -0.030680679 0.023970068
-0.034897648 -0.015854308 -0.029135872 -0.02248656 0.008711137 -0.035266515 -0.027080595 0.015015461
-0.0010992102 0.02292839 0.030992959 0.017156817 -0.013580209 -0.029756207 0.004534263 -0.002268292
0.02178413 0.024787687 0.01996262 -0.0012078248 0.02173264 0.02828193 -0.028677966 0.0057419315
0.0072061345 0.013324413 -0.006292224 -0.007703781 0.033417206 0.018353265 -0.0058468617 -0.029789483
0.021988295 0.014808144 0.0014488995 -0.032864656 0.017678387 -0.0072610173 0.035302196 0.016155962
-0.03125164 0.01366191 0.014384933 0.024629593 -0.021954268 0.01126096 -0.0036574602 0.027277995
-0.0094871875 -0.011729956 0.028603826 0.022907604 0.015405886 -0.019767363 -0.020692013 0.03426067
0.023629539 0.02277796 0.019374568 0.030414801 0.008644976 -0.017065836 0.018813912 0.014998961
-0.0042245276 -0.0106748175 0.005149696 -0.03557448 -0.032550823 -0.032276955 -0.028568959 -0.005086137
-0.007474253 -0.015708303 -0.023365844 0.02133197 0.013347343 -0.022581229 -0.0053078495 0.03072178
-0.007457154 0.012461517 -0.017110646 -0.0004712306 -5.06714e-05 -0.02176703 0.023476392 0.033518743
-0.02435859 -0.03143988 -0.00551844 -0.023677494 0.0108627975 0.013763733 -0.021101242 0.028540943
-0.034446947 -0.00034834072 -0.023747837 -0.0033490174 0.007116355 0.03441635 0.024207737 -0.013542039
0.0006904043 -0.030684456 -0.013750473 0.028819684 0.00886441 0.0203471 0.03522909 0.008851189
-0.03445538 -0.032784212 0.030089136 0.032452594 -0.028729742 0.013430253 0.024189785 -0.01995143
0.008084588 -0.008965522 0.019647736 0.020998258 0.0025538132 0.030392852 -0.010146584 -0.033283737
-0.00172133 0.022525031 -0.017703688 0.021435369 0.025238182 0.012680247 0.020703826 0.03356414
-0.022560457 0.015004225 0.007041082 -0.0018266104 -0.012362493 -0.0056119226 0.024719264 -0.016290683
0.011644602 -0.024596743 0.019320961 0.02036953 0.022042237 -0.0032877252 0.026792761 -0.009592159
0.019142691 -0.0018003695 0.0057113245 -0.030488923 0.026950184 -0.032380767 0.033199187 -6.851554e-05

bias f4 [125]
00000000: 2057 01bc be0b 00bb 8fa8 f03c 48a2 c03b
00000010: 04d1 1d3e 8a33 cf3c 66fb b83c 07e7 03bc
00000020: 38db e7bc a8d5 d0bc 1726 923c 06f6 df3c
00000030: 189e c0bc 787a 923c 7b7e 9d3c 9c5f ea3c
00000040: c6fe 8cbc 3069 073c e313 ca3d a4f7 843b
00000050: 1df3 233c 2034 33bc 4ebb b2bb 1e77 a2bc
00000060: 103c 073c 7ab2 d7bd 14b1 8fbd f2df c73c
00000070: 9334 24bd 59ea fc3c 25a4 02bb b351 bbbb
00000080: 9321 48ba 001b 1a3c a834 d03d dfba 09bc
00000090: 3c83 d0bc 57d6 bd3d 60fe 07bd ca90 07be
000000a0: 85c4 893d 7260 73bb 173c 20bd 10fb 18bb
000000b0: 774a ccbb 6b7e 693b 2f45 033d 780a 41bc
000000c0: 866f 9dbd 29f4 a7bc 345e 1dbd 2798 dbbd
000000d0: 02c1 41b9 9834 303d 4974 b9bd 8134 e5bc
000000e0: 4385 4839 9537 ab3e a2b5 15be f623 d93c
000000f0: 4ee5 95bb c419 23bd ae4f 7abc d7a5 923c
00000100: d734 6cbc 7ccf eebc 1008 883c c130 cb3b
00000110: 4fd7 df3d 5f9c 9cbd 2010 5dbb 1037 853b
00000120: 7f2a 0a3d 6ecc cb3b 788a ccbc 685e 5d3c
00000130: 3630 1a3d 7e35 b3bc 8173 843a 6336 1f3e
00000140: 4ce1 9bbc 1bbc d3bc bc57 1f3c ba22 f6bd
00000150: 7f9e 123b c054 b5ba d29c 2bbd 69bb b33e
00000160: a795 e53d 38e2 1e3e 1cab 183c 3cc5 c8bc
00000170: 19b0 f43d 8444 c0bc 735d a7bb 5af3 1a3c
00000180: afa2 4a3a 205c ceba e0b2 c53c 66c7 3dbc
00000190: cd06 333e a3a5 9b3b ddaa bf3b 48e4 fdbd
000001a0: dcac f7bc 386d 8f3b e3ea e1bc cf17 073c
000001b0: cf04 edbc 49e6 0cbc 7bd6 ea3b dacd 9b3c
000001c0: 3bad 5cbd 31a1 1abd 6476 943e e187 283c
000001d0: 8011 2abc 6a9c a4bc 9d1e ed3d 77d9 623b
000001e0: c44d 913c 56db 893c f3b1 80bd 9951 8e3c
000001f0: 8563 c7bc
-0.007894307 -0.001953825 0.02937725 0.0058787204 0.15411764 0.02529313 0.022580814 -0.008050687
-0.028302774 -0.025492504 0.017840428 0.027338993 -0.023512885 0.017880663 0.01922535 0.028610043
-0.01721133 0.008264825 0.09867074 0.0040578414 0.010006693 -0.010937721 -0.0054544574 -0.01983219
0.008254066 -0.105320886 -0.07016197 0.024398778 -0.0400892 0.030873464 -0.0019934264 -0.0057165264
-0.00076343975 0.009405851 0.101662934 -0.00840637 -0.025453202 0.09269398 -0.033201575 -0.13238826
0.06726936 -0.0037136343 -0.039119806 -0.0023343004 -0.006234463 0.003562833 0.0320484 -0.011782281
-0.07687287 -0.020502167 -0.038419917 -0.1072238 -0.00018477815 0.043018907 -0.09055383 -0.027979137
0.0001912313 0.33440843 -0.14620069 0.026506405 -0.0045744544 -0.039819494 -0.015277786 0.017901344
-0.014416895 -0.02915167 0.016605407 0.0062008803 0.10929739 -0.07647013 -0.0033731535 0.004065402
0.033731934 0.0062194383 -0.02496837 0.013511278 0.037643634 -0.021876093 0.0010105224 0.1554809
-0.019028328 -0.025846532 0.009725507 -0.12018342 0.0022372303 -0.0013834462 -0.041897602 0.3510392
0.112101845 0.15515983 0.009318139 -0.024508111 0.119476505 -0.02347017 -0.0051075756 0.009457434
0.000772993 -0.0015744008 0.024133146 -0.011583185 0.17483063 0.00474997 0.005849226 -0.12397057
-0.030233793 0.0043770336 -0.027577823 0.0082454225 -0.028932957 -0.008599826 0.0071666813 0.019019056
-0.053876143 -0.03775138 0.28996575 0.010286302 -0.010380149 -0.020094115 0.11578105 0.0034614482
0.017737277 0.01682822 -0.06283941 0.017372893 -0.024339447

weight f4 [65, 125]
00000000: 6861 17bd d758 953d 15a7 77bd a752 4fbd
00000010: bf89 923d 80fe fb3c 8888 093c e4a6 fb3c
00000020: 15cf 85bd e4b4 b43c 9879 3fbc 38be 963c
00000030: d8ef 8b3c f014 053d c432 103d 101f 99bb
00000040: aea8 7a3d bd75 31bd 215a b33d b413 20bd
00000050: 585a 113d 1045 a4bd f4c4 85bc c85a 123c
00000060: 3e75 343d be94 04bd 04a1 083d 3275 b1bd
00000070: c09f a13b b477 55bd 8a71 713d 20cc 263c
00000080: b573 ac3d f026 863c c03b b8bb 0673 30bd
00000090: d17d 88bd f647 fdbc acce 80bd 088f 77bc
000000a0: 1858 da3c 800d bcbb 5f5f 74bd 9621 763d
000000b0: a199 a9bd 5e04 3d3d 68fe 73bd e85b a0bd
000000c0: 789b a8bc 6ea6 adbd 3cb8 bbbc e47f c7bc
000000d0: 6987 a6bd 00c2 5239 dab0 373d e81f 063d
000000e0: a847 153c a9e1 5ebd 80ea 2abb bed6 82bd
000000f0: 96ce 3a3d 036a a1bd a238 6dbd 696a af3d
00000100: 0096 983c aa4d 37bd 404d 813a e6d1 9abd
00000110: d0ee 523c 6e04 93bd 1d38 b0bd 2ad2 ffbc
00000120: 88eb 22bd 469f 81bd 85c1 9f3d 7c03 b2bd
00000130: fce0 a2bc 3691 94bd 63d6 953d f0ef da3b
00000140: af80 ab3d 345e 9c3c 7983 953d a84b d43c
00000150: 7032 2cbd 2006 18bc 207f b83b 1a48 683d
00000160: 433b b23d 88e8 633c f848 40bc d12e 05bd
00000170: 0c76 acbc c18b 48bd c29e 743d 2bb6 89bd
00000180: ac3e 3dbd 2133 3fbd 1094 c53c b1cb 9c3d
00000190: df53 9fbd 08a5 b6bc 0ae4 5a3d 3180 a73d
000001a0: 28cd 97bd 6993 923d b95c 863d 50c6 83bb
000001b0: 2c40 073d d596 853d a8da aabc 185d b1bd
000001c0: 797d a4bd 7a43 513d d4ba 4dbd 41e3 953d
000001d0: 6497 c73c a312 a0bd 40e8 90bb c079 89bc
000001e0: 4046 9fbb 9050 cfbb 529b 2fbd 4a4c 70bd
000001f0: 5b4e 913d 67cd 963d efae 973d f032 b73d
00000200: 260c 073b f208 46bb 7091 fb3b 73fa d33c
00000210: f03e 45bc bdec 3e3d 5dfe b0bd 88cd 35bc
00000220: 8498 bfbc b829 32bc 6fff c4bc 8b3b 0abd
00000230: 0001 0b3d 488d 473d fa6e 87bd 67d9 7d3d
00000240: 7861 51bd f8ac 01bc 789f 90bd 31bd 25bd
00000250: 9b05 9b3d bcc5 88bd e5ea 88bd 9a2f bc3c
00000260: fc64 cdbc 3a69 91bd 80f9 8a3a c98c 73bd
00000270: 795e 883d f5d8 98bd ceb9 143d 959f 02bd
00000280: 6e23 41bb f1f0 08bd 99c1 20bd d87c 37bc
00000290: 4489 b63d 4775 bcbd d7a3 b5bd 1449 b2bd
000002a0: 13ee 843d 1fe7 313b 2d42 963d 6493 77bd
000002b0: 4847 013d b241 23bd 14da 80bd 20f2 8fbc
000002c0: 76fe 37bc 0c02 e03c 300b 37bd aa1e 3cbd
000002d0: 6035 c3bb f4bb a1bc 379e b83d d0fb 923c
000002e0: e087 2dbc 5d92 a23d 930e 31bd a3f5 5ebd
000002f0: 4917 89bd 2057 19bd c20b 1c3b e3be ea3b
00000300: f66c 3ebd eadb 11bd eae0 a7bd f8d1 fc3a
00000310: b7a8 ab3d 00cf da3a cb42 91bd 2eb3 9dbd
00000320: 5e48 2c3d 4162 863d 698d 123b bb70 07bd
00000330: fe69 783d 9485 34bd 3f9a a43d 577d a33d
00000340: c2f8 cd3c 8169 3bbd a0c0 a2bb 8df8 9e3d
00000350: 6724 3abd 635f 973d 8e63 adbd 52e9 343d
00000360: 8f7a a33d 5264 3ebc d653 453d 0b9b 903d
00000370: 88af 22bd 5c39 36bc dc70 d13c 5238 fcbc
00000380: c218 063d 6f49 66bd 4452 a0ba 2677 003d
00000390: 8194 94bd 6fc6 a23d 80c7 9aba 02f8 ad3d
000003a0: 4d30 88bd b8fa 5cbd 3472 90bd dac3 ab3d
000003b0: c010 3bbd f564 d4bc f9ba 23bd c55b 323d
000003c0: e4bc 97bd f06e 8c3c c082 593c f003 2dbc
000003d0: 5851 613d 137f 85bd 40d7 9bbc c896 3b3d
000003e0: d383 e7bc 317b e93c 3a0c 40bd c4d0 8bbd
000003f0: 0e65 37bd d7ac 363d f760 e23c 006a d33c
-0.03695813 0.072923355 -0.060462076 -0.050615933 0.07155179 0.030761003 0.008394368 0.030719228
-0.065336384 0.022058912 -0.011686705 0.01840125 0.01708214 0.03249067 0.035204664 -0.0046728924
0.06119602 -0.043325175 0.08757425 -0.03908129 0.03548655 -0.08020985 -0.016329266 0.008932777
0.044057123 -0.032368414 0.03335668 -0.08664931 0.0049323738 -0.05211611 0.05894617 0.010180503
0.08420507 0.016375989 -0.005622357 -0.043078445 -0.066646226 -0.030918103 -0.062894195 -0.015109785
0.026653334 -0.005738914 -0.059661265 0.060090624 -0.082812555 0.046146743 -0.059568793 -0.0783003
-0.020581946 -0.084790096 -0.022914998 -0.024352975 -0.08131296 0.00020099431 0.044846393 0.032745272
0.009111322 -0.054414425 -0.0026079714 -0.06388615 0.045607172 -0.07881548 -0.057915337 0.08565218
0.018626213 -0.0447518 0.0009864941 -0.07559566 0.01287432 -0.07178579 -0.08604453 -0.031228144
-0.0397754 -0.06329207 0.07800583 -0.08692071 -0.019882672 -0.07254259 0.07316282 0.006681435
0.08374154 0.019087888 0.07300467 0.025914982 -0.04204029 -0.009278804 0.005630389 0.056709386
0.087027095 0.01391042 -0.011736147 -0.03251535 -0.021052383 -0.048961405 0.059721716 -0.06724199
-0.046202347 -0.04667962 0.024118453 0.076560386 -0.07779669 -0.02229549 0.05344013 0.081787474
-0.07412177 0.071570225 0.06560654 -0.0040214434 0.033020183 0.065229096 -0.020856217 -0.08660334
-0.080317445 0.05108974 -0.050227 0.07318736 0.02436418 -0.07816055 -0.0044222176 -0.016781688
-0.0048606694 -0.0063267425 -0.042872734 -0.058666505 0.07095023 0.07363396 0.07406413 0.089452624
0.0020606606 -0.0030217734 0.0076772496 0.02587626 -0.012038931 0.04661249 -0.08642266 -0.011096366
-0.023388155 -0.010874204 -0.024047581 -0.03374819 0.0339365 0.04871872 -0.06612964 0.06197491
-0.051118344 -0.007914774 -0.07061666 -0.04046363 0.075694285 -0.0667834 -0.066854276 0.022971917
-0.025072567 -0.071001485 0.0010602921 -0.059460435 0.06658644 -0.07463256 0.03631001 -0.03189047
-0.002947058 -0.033432905 -0.03924713 -0.011199199 0.089129 -0.092020564 -0.088691406 -0.08705345
0.064907216 0.0027145816 0.07336841 -0.060443297 0.03156212 -0.039857574 -0.06291595 -0.017571509
-0.011230102 0.027344726 -0.044688404 -0.04592768 -0.0059572905 -0.019742943 0.09014552 0.01794234
-0.010591477 0.07938073 -0.04322679 -0.054433476 -0.066938944 -0.037436604 0.002381072 0.0071638688
-0.046490632 -0.035610117 -0.08197196 0.001928865 0.08381789 0.0016693771 -0.07092818 -0.077001914
0.042061202 0.06561709 0.002236212 -0.033066493 0.060647957 -0.044072703 0.080372326 0.07982891
0.025143031 -0.045754913 -0.0049668103 0.07762251 -0.045444872 0.073912404 -0.08466254 0.044167824
0.079823606 -0.011620598 0.048175655 0.07060822 -0.03971818 -0.011122074 0.02556651 -0.030788574
0.032738455 -0.056222375 -0.0012231548 0.03136363 -0.07254887 0.079480045 -0.0011808723 0.08494569
-0.06649838 -0.05395004 -0.070530325 0.08386965 -0.04567027 -0.025927046 -0.039973233 0.04354455
-0.07409075 0.017142743 0.013275802 -0.010560021 0.055009216 -0.06518378 -0.019023538 0.045798093
-0.0282611 0.028501125 -0.04688666 -0.06826928 -0.044774108 0.044598427 0.027634127 0.02580738

bias f4 [65]
00000000: 03c6 2bbd ee1f a6bc fcd5 713d 556d 00bd
00000010: 1117 503e d6cd b83c e116 9dbd 9509 2cbe
00000020: 96f1 44bc 52e9 573c e80c 9fbd 2714 983d
00000030: fc70 1d3d 590f 84bd 4337 67bd 16de 96bc
00000040: d1ef c83d 2de9 87bd 23b8 61bd 30ad 013d
00000050: b0e9 893c b3ce f8bd cb3f 803d e25e 6cbc
00000060: ed90 a1bd 6400 7bbc c740 31bc 6fea 843d
00000070: 4459 023c f56f a93d c0d1 8bbc 2576 093d
00000080: 19a7 9e3d 5ff5 173d 78f6 5bbd 7865 0bbe
00000090: 9a63 7bbd 2011 c0bb f049 04bc e6ae 15bd
000000a0: 4ef1 813e bb1c 08be 3552 163e d6fc aebd
000000b0: 6691 9dbc 4aa7 b93d fe61 7b3d b820 0c3d
000000c0: ad29 913c 87f5 7e3d e2a8 463d c65d 2d3d
000000d0: 770b c1bc a90d 313d 622e 073a 6e52 04bd
000000e0: a8c3 05bc 57b3 25bd c81e 99bd 2832 333e
000000f0: 3e7a 1d3d 64bc e7bd 18c2 d1bb 4684 2d3d
00000100: e615 953d
-0.041936886 -0.020278897 0.059041962 -0.031354267 0.20321299 0.022559088 -0.076703794 -0.1680053
-0.012020489 0.0131781865 -0.077661335 0.07425719 0.03843783 -0.0644824 -0.056449186 -0.018416446
0.09811366 -0.066362716 -0.055107247 0.031659305 0.016835064 -0.121488 0.062621675 -0.014426919
-0.078889705 -0.015319917 -0.010818667 0.06490027 0.007955853 0.08273307 -0.01706779 0.033559937
0.07746715 0.03709924 -0.053701848 -0.13612926 -0.061374284 -0.0058614165 -0.008074269 -0.03654375
0.25379413 -0.1329221 0.14679797 -0.085443184 -0.01923437 0.09065111 0.06137275 0.03421089
0.017720068 0.062245872 0.048500903 0.042325757 -0.023565037 0.043225918 0.0005156753 -0.032305174
-0.008164324 -0.040454235 -0.07476574 0.17499602 0.038446657 -0.113152295 -0.0064013116 0.042362474
0.072795674

weight f4 [784, 65]
00000000: e885 3d3d d5d1 973d 93f6 203c 1ed3 e93d
00000010: d926 74be bb71 a73c bb16 fdbd f3e5 033e
00000020: 4858 bbbc 172b f93d 2d65 c9bd 503e cb3d
00000030: 7725 823c 12fc 693d 2c36 f5bd 6d31 af3d
00000040: 8eaa 903d de43 813d 3c72 db3d ccd9 1abd
00000050: c5fe 12bf 3f1b c03d cd1d e5bd 8f43 163d
00000060: a075 483d 1166 27bc af12 5abd 9ca8 eabd
00000070: c2fd c83d 5ac5 543e 3ed6 b23d 6076 78bd
00000080: 157d dabc fb0f 303e 688f 943b d013 8e3e
00000090: b99c b1bd 13a3 8c3d 3f52 463d 9189 b83d
000000a0: 640f 983c 35fc 0b3d fc74 7ebd e064 fc3c
000000b0: fc79 a23c 663e 65be caf7 b8bd f6a8 8b3d
000000c0: d492 913d 5f7f f43d be73 c5bd 808b fbbd
000000d0: 854d 50be c447 133e 9153 dd3c a0cf 83bb
000000e0: b653 8b3c d4bc 13bd 831e 99bd 63a1 93bd
000000f0: 80b3 7c3a eaec 0ebe 653a 52bd d830 c8bc
00000100: 137e 2f3e dccf 393d 769d f9bd 1f9a 15bd
00000110: 809e 873a e5a7 ad3e 0152 5f3d 01f1 8c3d
00000120: be00 06bd 8d89 733d 91bf 593c 807c 593b
00000130: 5a4e 01bd 29d0 c2bd 86a6 c0bc b912 9abd
00000140: 51ac ffbd c688 a23d 00ec c8bd dae4 16bd
00000150: dbb1 d23d 9b0b 893e 2a9b 45be 00bb fcbc
00000160: 02d5 413d da93 babd 7736 8cbc 7fc9 6bbd
00000170: f124 713d c13a 70bd 72b0 b43d 602c 593d
00000180: 948d b1bc 6e23 453b c72f 57be 0571 043d
00000190: bbd7 5cbe 60dd 593c 2ac9 163d de5f a53c
000001a0: 9727 cc3d 37cd b33d 7a68 4dbd cb6d 1d3e
000001b0: 5a2c 863d 85f7 61bd d318 503e e029 ee3d
000001c0: 0a48 663d 1de8 1e3b abc1 023e e362 3c3d
000001d0: 705a b13d eaa6 bbbe 02be 0cbd 4465 113e
000001e0: 80f8 abba 0bad 6c3d 4c6a 02bc 4a54 a4bd
000001f0: f34a 133e f94f d1bd 3c36 543c 7974 293d
00000200: bb10 bdbd 1199 c73d 6089 eb3d 53bf 68bd
00000210: 03a1 1c3c 802d c23c 2861 143e ea43 bb3c
00000220: ddeb f1bd 74c5 883e 1de2 a6bd ecdf 2b3e
00000230: dca6 6abd c912 a7bd 896e 693d 8294 babc
00000240: 83c6 a6bd a497 9abd d906 9f3d 6edd a6bd
00000250: ae83 dc3d 1203 b5bd e316 b93d 83f8 8abd
00000260: 8c4a 0c3d 86cc 53bd 0080 e838 781d 983d
00000270: 4c51 95bd 269d 90bd e4a5 873d 932d 133c
00000280: 6e62 e1bd d45b c0ba 905c 533e ad06 9ebd
00000290: 5ad1 6dbd 9b7b 0abc 6c12 c1bd 88ae a9bd
000002a0: 4632 21bd 588f 6bbe e449 303e 2472 3f3e
000002b0: c53f 413e 00c6 9b3b 7652 b1bc e0d8 213e
000002c0: 5830 0f3d eab3 acbd 0984 2a3e f2f5 383d
000002d0: dadc 01bd 7821 da3d 998f 3fbf aa2d e53c
000002e0: 7cd4 3b3d 2617 de3d b052 b8bd 068c 083d
000002f0: e7b5 dc3d 1eb4 9e3b a240 acbd 883a 4a3d
00000300: 4cac 45bd 9411 de3d 7967 0e3d acb8 a1bd
00000310: 03c3 d13c 7a84 513d 7099 f23c af83 ba3e
00000320: 01b1 9cbd 7dc1 c43d 9fee 903d 6fdf bebd
00000330: 702e a63d a51b e5bd 5190 eabd dc6c dabc
00000340: 7080 a4bd f4eb f03d 1941 c9bd 18d3 d13d
00000350: 263c d9bd 1287 f23d 685a e3bd 4de9 353e
00000360: fb28 3d3e ed08 d5bd 1dab d53d 6c71 9cbc
00000370: 6617 f1bd a8bf 55bd e1d8 783c 3c1d eb3d
00000380: a3f9 cabd c04d 323b 051f 673d dae6 223e
00000390: b2cd 373e b773 943d 1853 1d3e 8285 7abd
000003a0: 346e fd3c d4a8 9fbd 3bcd f0bd 5922 4a3e
000003b0: 27f4 3e3e a0bf babd 9828 ae3d 410e b83c
000003c0: 9266 ba3d 849e a0bd c38b 17bd cc0a 3d3d
000003d0: b10a 5dbe 63ea 74bd aa28 b03d 4605 8b3c
000003e0: 2ef6 a4bc f95c 4c3d 78a1 3fbc 3e12 78bd
000003f0: 7287 e23d 6cf0 9ebd 0bcf 583e c06f 7b3c
0.04627028 0.07413069 0.009824413 0.114172205 -0.23842944 0.020439973 -0.12357851 0.12880687
-0.022869244 0.12166422 -0.09833751 0.099239945 0.015887005 0.05712516 -0.11973223 0.08554349
0.07063781 0.06311773 0.10715148 -0.037805364 -0.5742 0.09380197 -0.11187325 0.036685523
0.0489403 -0.010217206 -0.053240474 -0.11457941 0.098140255 0.20778409 0.0873227 -0.060659766
-0.026670972 0.17193596 0.004533697 0.2774949 -0.086724706 0.068670414 0.04841828 0.09010614
0.018562026 0.03417607 -0.062123284 0.03080982 0.019833557 -0.22387084 -0.09031637 0.06819336
0.07108083 0.119383566 -0.09641217 -0.12282467 -0.20342071 0.14382845 0.027017387 -0.0040225536
0.01700769 -0.036068752 -0.07476523 -0.072085164 0.00096397847 -0.13957563 -0.05132522 -0.024437353
0.17137937 0.045364246 -0.121882364 -0.036523934 0.0010346919 0.33917156 0.054521564 0.06881905
-0.03271555 0.05945735 0.013290302 0.003318578 -0.031568862 -0.0951236 -0.023516905 -0.07523102
-0.124840386 0.07936244 -0.098106384 -0.036839344 0.102878295 0.26766667 -0.19297472 -0.030850887
0.04732228 -0.09110232 -0.017115815 -0.05756521 0.05887312 -0.058649782 0.08822717 0.053020835
-0.021673955 0.0030080932 -0.2101432 0.032334346 -0.2156667 0.013297409 0.03681294 0.020187315
0.09968489 0.08779376 -0.050148465 0.15373914 0.06551428 -0.055167694 0.2032197 0.11629081
0.056221046 0.0024247237 0.12769191 0.045992743 0.08659828 -0.36650783 -0.034360893 0.14198786
-0.0013120323 0.057782214 -0.007959913 -0.08023889 0.1438406 -0.10220332 0.012952384 0.041370843
-0.09231707 0.09745992 0.115008116 -0.056823086 0.009559873 0.023703337 0.14490187 0.022859532
-0.118125655 0.26713145 -0.081485964 0.16784638 -0.057288036 -0.0815788 0.05699018 -0.022775892
-0.08143332 -0.075484544 0.07764978 -0.08147703 0.107673034 -0.08838476 0.090375684 -0.06785681
0.03425078 -0.05170872 0.00011086464 0.07427496 -0.07290897 -0.07061224 0.06623438 0.008983034
-0.11005102 -0.0014675804 0.20640779 -0.07716117 -0.05806098 -0.008452321 -0.09427342 -0.08285242
-0.039354585 -0.230039 0.17215687 0.18695885 0.18871982 0.004753828 -0.021645766 0.15805387
0.034958214 -0.084327534 0.1665193 0.045156427 -0.03170476 0.10650915 -0.7482849 0.027975876
0.045856938 0.10844259 -0.090001464 0.03333666 0.107768826 0.004843249 -0.08410765 0.049372226
-0.04826002 0.108431965 0.034766648 -0.078965515 0.025605684 0.05115173 0.02961418 0.36428592
-0.07650948 0.096072175 0.07076763 -0.0931996 0.08114326 -0.111869134 -0.114533074 -0.026663236
-0.0803231 0.117637545 -0.098268695 0.10245341 -0.106071755 0.11842169 -0.11101228 0.17764778
0.18472664 -0.10402093 0.10433028 -0.019097053 -0.11772041 -0.05218473 0.015188427 0.114801854
-0.09910896 0.0027206987 0.056426067 0.15908375 0.1794956 0.07248633 0.15363729 -0.06116248
0.030936338 -0.07795873 -0.117578946 0.19739665 0.18647824 -0.09118581 0.085038364 0.022467734
0.09101595 -0.078427345 -0.03699852 0.046152875 -0.2158611 -0.05979384 0.08601506 0.016970288
-0.020136919 0.049893353 -0.011696212 -0.060564272 0.110609904 -0.077607006 0.2117273 0.0153464675

bias f4 [784]
00000000: d2b5 36bd 2e25 a53d 5e0e 063d 6260 d73d
00000010: b173 903d d00d bebc afc0 2f3d 23cf a0bd
00000020: 68c6 593c 1c39 763d f319 853e 8ab3 14be
00000030: 5981 04bd 21e3 31bd dfe6 bdbd 82de 0cbe
00000040: 3829 62bd 3344 a8bd d9d3 2f3d 8be4 c4bd
00000050: 375c 04be 5004 a7bd bc95 03bd 9b1b ed3c
00000060: d1de ebbc 2e0d 983d 4fba f5bd e250 33bd
00000070: 0248 06bd a529 06be 1632 dbbd df89 b6bd
00000080: 8663 12be b570 01be c67d 3cbd f85d 593d
00000090: abf0 08be 42df 15be d950 41bd 0873 bb3b
000000a0: 5ac3 c5bc 845d ae3d 4377 b93d 817f 0bbe
000000b0: 71ac 873d d999 2dbd 8846 843d 3390 a83d
000000c0: 41cd 07be 59c6 be3c 2c9a 753d 1d82 ee3c
000000d0: 09af 8abd 82b1 8c3d b064 21be c92b 43bd
000000e0: 787f 15bd 337d 49bd bcfd 08be 9d21 0ebc
000000f0: d354 e9b8 06e0 293d 28fc 1dbe 46ad 57bc
00000100: 89c7 89bd bfce 2ebd 6598 f23c ca25 c5bd
00000110: 33e3 5b3d 4d5c f0bc 296a 9d3d ab5c 743c
00000120: 909a 3a3d c07d 05bd 7f98 493c 18ed f0bd
00000130: 0888 f8bd 4ad5 1abd 0cc0 59bd fa49 bf3d
00000140: 87c9 5cbd ff4a b6bd a076 debd 79be d83c
00000150: 8160 1b3c 2a6d 263d 596b 3b3d 6903 84bd
00000160: aafb bfbc db2a 0bbd 1ecb adbd bac2 2c3d
00000170: 0828 113d dd79 433d 68ec 9bbc 25ca 8d3d
00000180: 3432 a93d adf1 c53b ca2d 02be 9eec 14be
00000190: 086f efbd 5183 353c 3403 d8bd 6d96 643d
000001a0: 9df9 b8bd ca1b ae3b 2b3d 96bc 69ec 6abd
000001b0: 9a55 673d 86e2 02be c36a d0bd eb26 9b39
000001c0: fe7a 733d ab55 b03c 7697 e6bd 6024 443d
000001d0: 04d2 d1bd 97d2 c7bc ba86 8cbb 6339 1b3c
000001e0: 0731 043d 66cd 7abd 7c37 10be b53a aabd
000001f0: dba8 933d 2116 9e3d 6cc9 02be e55e 053d
00000200: 42f0 83bd 2ebf ea3c 9f26 82bd 8cc3 01bb
00000210: c4f3 1cbe 6bbd 08be 7c06 e0bd 0544 e7bd
00000220: 8463 e3bd e3b8 af3d 1056 8fbd f072 763d
00000230: d47b 16be 23a1 673d 0b0f 3fbd 1814 8cbd
00000240: 6e69 15bd 88c7 443d b485 723c 22aa a8bd
00000250: 3f8d 82bd e046 9b3d 0bc9 4a3d b17b 89bd
00000260: 4b76 b8bd 5e98 e9bd a5ad 9a3c 134e 0cbe
00000270: 5240 b53d 6682 1abe 6d6b 67bd 0d5f a53d
00000280: 2800 dfbd 3839 d8bd 03ad b23d 6f37 61bd
00000290: bee9 a53d 2ee4 8e3c 2f5a 42bd 3959 01bd
000002a0: 22f0 e3bd c84c 803d c76b 03be fa54 06be
000002b0: da48 ae3d c0a9 8c3c c74b 8e3c 0342 f13c
000002c0: 20e3 9b3d c119 b73d fe9d fe3c 9110 baba
000002d0: 06ce 483d b308 1e3d 02cc 863d 3d57 febd
000002e0: b4d9 0dbe f669 75bd 1b75 8cbd 0ef6 ac3d
000002f0: c0cb e3bd c58c f9bd 18de ba3b 1b24 553d
00000300: 74d0 c4bd be20 0fbc 647b bfbd 79b2 adbd
00000310: c868 ecbd b1d3 12be 77c7 e3bc b47f b8bd
00000320: c479 9d3d e6dc 5f3d 6f89 46bd 069c b1bd
00000330: 97c2 3e3d d600 9e3d d383 15bb 04b8 0c3d
00000340: 2f90 5d3d 0137 1fbd 232f 51bc 9f5a 00be
00000350: a9c0 873c f4de e63c 0d2b 793c 5ea3 d9bd
00000360: 6d10 98bc a3fb 21be d5ff 323d 89f4 86bd
00000370: d15a 833d 8981 0ebd ae2d aa3d 5ec4 a2bc
00000380: 00ea 21bd e773 ddbd ae98 1fbd d2cf 4a3d
00000390: 0881 293d 9863 e0bb 4997 903d 491e 8a3d
000003a0: 6472 83bd 7142 973d c437 283d 44c3 2a3d
000003b0: a4d4 1ebe 784f b8bc 8d25 c73b 19ae 813d
000003c0: ef48 96bd 4795 d3bc 128d e7bd bebb 02be
000003d0: 60c8 31bc 1d8b adbc e4cc 6ebd a2d0 c9bd
000003e0: 7231 6e3d 97d3 65bd 29e1 7dbd 8462 9a3d
000003f0: 858d 04be c2f2 fc3c 3364 9fbc 63ba 00be
-0.04460699 0.08063732 0.032728545 0.105164304 0.070533164 -0.023199946 0.042908367 -0.07852008
0.013291933 0.060113057 0.2599636 -0.14521614 -0.032349918 -0.043429498 -0.09272551 -0.13756755
-0.05521509 -0.08216133 0.042926643 -0.096139036 -0.12925802 -0.081551194 -0.03212522 0.028943827
-0.02879277 0.07424389 -0.11998426 -0.043778308 -0.032783516 -0.13101824 -0.107029125 -0.089130156
-0.14295778 -0.1264065 -0.046018384 0.05306813 -0.13373058 -0.14635947 -0.047196243 0.0057205
-0.024141002 0.085139304 0.090559505 -0.13622858 0.066246875 -0.04238305 0.06458765 0.08230629
-0.13261892 0.023287939 0.059961483 0.029114777 -0.067716666 0.068697944 -0.15761065 -0.04764918
-0.036498517 -0.049191665 -0.13378042 -0.008675006 -0.000111261055 0.04147341 -0.15428221 -0.01316387
-0.067275114 -0.042677637 0.029613683 -0.09626348 0.05368347 -0.029340887 0.07686264 0.014914672
0.04555756 -0.032590628 0.012304424 -0.11763972 -0.12135321 -0.037801065 -0.053161666 0.09340282
-0.05390313 -0.08901023 -0.1086247 0.026458012 0.009483458 0.04063145 0.04575667 -0.06445963
-0.023435432 -0.033976417 -0.08486007 0.042177893 0.035438567 0.04772364 -0.019033626 0.06923322
0.082615286 0.006040773 -0.1271278 -0.14543387 -0.116910994 0.011078672 -0.10547486 0.05580752
-0.09031985 0.0053133713 -0.018339714 -0.057354365 0.05647812 -0.12781724 -0.10176613 0.000295929
0.059443466 0.021525225 -0.11259358 0.047886252 -0.102451354 -0.02439241 -0.0042885216 0.009474131
0.03227332 -0.06123104 -0.14083666 -0.08311979 0.07209941 0.077190645 -0.12772149 0.0325612
-0.0644231 0.028655615 -0.06355023 -0.0019800393 -0.15327364 -0.13353507 -0.10938737 -0.112922706
-0.111029655 0.08580186 -0.06998837 0.060168207 -0.14695674 0.056550156 -0.046645205 -0.0683977
-0.0364775 0.04804185 0.014802385 -0.08235575 -0.06374597 0.07581878 0.049508136 -0.067130454
-0.090069376 -0.11406015 0.018881628 -0.13701658 0.08850159 -0.15088806 -0.056498934 0.0807477
-0.10888702 -0.105577886 0.087244056 -0.054984506 0.081012234 0.017442789 -0.047449287 -0.03157923
-0.11129786 0.06264645 -0.12834083 -0.13118353 0.08509989 0.017170787 0.017370118 0.029450422
0.0761168 0.08940459 0.031081196 -0.0014195611 0.049024604 0.038582515 0.0658188 -0.12418983
-0.13852578 -0.059915505 -0.068582736 0.08445369 -0.111228466 -0.12185053 0.005702745 0.052036386
-0.09610072 -0.008735834 -0.09349707 -0.084813066 -0.11543423 -0.14338566 -0.027805073 -0.090087324
0.076892406 0.054654025 -0.04847091 -0.08672337 0.046572294 0.07715003 -0.002281417 0.03435518
0.054092582 -0.038870815 -0.012767586 -0.12534569 0.01657136 0.028182484 0.015208018 -0.10626863
-0.01856252 -0.15818648 0.04370101 -0.0658961 0.06413806 -0.034791503 0.08309494 -0.019869026
-0.0395298 -0.10813122 -0.038963966 0.0495146 0.04138282 -0.00684781 0.07060105 0.06744058
-0.06418303 0.073857196 0.041068807 0.041690126 -0.15510803 -0.022498831 0.0060774744 0.063320346
-0.0733813 -0.025828017 -0.11306204 -0.1276693 -0.010850996 -0.021184498 -0.058300868 -0.09854247
0.058152623 -0.05610999 -0.061982308 0.075383216 -0.1294461 0.030877475 -0.019456958 -0.12571101
