resources/python/num_model.pt (torch, 447406 bytes, 6 tensors)

weight f4 [128, 784]
00000000: 0b30 76bc 7e31 f33c 4602 cfbc 1707 07bc
00000010: 8512 c9bb dc58 4d3b 5d15 ccbc a111 f9bc
00000020: 19ad 7bbc 201f 9eba 4c9c 46bb 1163 223c
00000030: 84a0 f23c d244 903c 9fc1 30bc 8437 fe3c
00000040: 9e83 c03c a45d ae3c 1ed7 df3c 6bcd e0bc
00000050: ebb6 cfbc 6768 d9bc 6a13 cc3c 3852 81bc
00000060: 8129 acbb 2ddb aabc 61a2 4bbc efb5 9abc
00000070: 6e25 ea3c fa24 c93c 49cb 2c3c 615f 7e3c
00000080: d117 e13b 1085 0dbd 6ede 0e3c 9a80 d8bc
00000090: 4fee 0f3d 52e7 9a3c 1b1e b33c 97a5 abb9
000000a0: 4786 973c e6e3 53bc 6b3c 5cbc aa0b e4bc
000000b0: 2696 ab3c 78c1 1d3b ed08 afbc f911 da3c
000000c0: c666 8bbc a51f 06bd d3da 7cbc 83f3 d83c
000000d0: 6a42 f13c c74c 103d dedc f83c ba59 03bd
000000e0: 6ac4 613c 721d 0ebc 943e f7bb bbe6 0a3d
000000f0: 7051 b5bc 164f c3bc 2a05 323b b84a f03c
00000100: 6679 ce3c bc5e f1bb ce70 b53c c731 d7bc
00000110: 4e58 0cbd ef76 1ebd a5c3 543c e477 ccbc
00000120: bfad 5cbc 0e6a 9bbc e9e9 d7bc 6660 333b
00000130: 2618 ae3b 4e17 663c d12d 8a3c 6c96 e6bc
00000140: 1761 a8bb ea9d f63c 1d3f b9bb 65d9 eabc
00000150: 002d b53c 6da3 133d 53e0 dfbc 179c e63c
00000160: bcde e73b 2c51 053d 4fd2 c93c f01c adbb
00000170: 5158 7cbc 8a20 bfbc 3080 e9bc 13ae 0fbb
00000180: fa2d 943b bcf2 5abd de9b 20bd b053 9bbc
00000190: 0ba4 5abd f22b 49bd 826a a0bc 4e28 843b
000001a0: 2063 37bd 5206 d7bc 9c9c da3c c5f2 6abc
000001b0: 1714 0a3d 4f1e f93c d2c6 b43c bb10 e9bb
000001c0: 5e17 073c 50cd 033b 3505 a5bc 725e 123a
000001d0: cad2 7abc 7697 103c 64e6 5bbc f104 e2bc
000001e0: 44ec e8bc d3de c8bc f7df aebb 2ef0 ebbc
000001f0: 14b1 9ebd 32c8 3abc 048c 22bd 9703 9fbc
00000200: 9894 13bd 6fcc 16bc 8686 a33c cf15 183b
00000210: 22c4 38bd 16b6 cabc 6a39 b73c 6196 4bbc
00000220: 4c8f 963c cc4a 8bbb b778 08bd 1f86 e03c
00000230: 849e 483c b5e9 7bbc 05af d7bc b9f1 f6bc
00000240: 9661 f4bc bb42 9a3c 6e4c a838 bcfd eabc
00000250: aa2d abbb 4d8f 2a3b 71b1 4cbd fe89 2fbd
00000260: 00a3 013c 0113 84bb 740e a0bc c277 d5bb
00000270: 71e8 d6bc 4743 85bd 559a 89bc baab b6bb
00000280: 9f09 013c dd18 373d fc0d 533c a937 a5bc
00000290: f14d 89bc 2b55 403c 2b04 8a3c 7403 c7ba
000002a0: b511 09bd ac35 95bc 898c c23c 98c5 4bbc
000002b0: 68dd ea3c c03d debc 5a22 133d fa6d b53c
000002c0: 47ee 5e3c 9396 9d3c be18 5c3d 2914 293d
000002d0: bc71 9b3b 7fa4 7dbc d8a8 ad3c d617 4f3c
000002e0: a331 e5bc 06cd e73c 50bd 643d 6e78 c33b
000002f0: 527a ea3c 6884 4f3a d06d cfbc 3655 cdbb
00000300: 292f 24bc a183 2d3b 5496 b3bc 7918 f53c
00000310: 7125 9f3b 8abe e03b 28b0 073d 0ff0 633c
00000320: b597 8d3c b698 d33c 7ba1 973b 37eb 0d3d
00000330: 6fb6 893d 3d72 1f3d de37 7b3d ea09 90bc
00000340: 7eb8 373c 06db 263d 92a8 123d cf5e a53c
00000350: ec82 5a3d 5d7b f33c b973 f93c 1f89 1a3d
00000360: c851 b83d 1e67 8b3d 3985 193c efc5 843c
00000370: 8417 e53b aa53 47bc 15b6 c0bc aab9 713b
00000380: f85a 0a3d c9c4 55bc 6fb5 ae3c 9d86 083d
00000390: 9d9e 333d fba2 3f3b 3a3e f63c 410f 823c
000003a0: f79d 8d3d 4dfa 633d 71b7 313d b4c1 803d
000003b0: be5a 2b3d 2d36 2d3d 7fd4 953d 9684 76bb
000003c0: 8ffc fc3b 5936 38bc ec1a 8a3c e254 653d
000003d0: 3e8c 413d 3577 e63c 7df3 313d 0726 273d
000003e0: 965f ecbb 95ab e63b 6b50 89bc d43d f8bc
000003f0: 6837 0fb9 04fa 81bc ba38 173c 8a61 0b3c
-0.015026103 0.029686686 -0.025269639 -0.008241436 -0.006136241 0.0031333482 -0.02491253 -0.030403914
-0.015361094 -0.0012063719 -0.0030305563 0.009911315 0.029617555 0.017610941 -0.01078835 0.031032331
0.02350026 0.021284886 0.027324256 -0.0274417 -0.025355777 -0.02653904 0.024911601 -0.015786275
-0.005253971 -0.020856464 -0.012428851 -0.01888558 0.028582301 0.024553765 0.010546514 0.01552567
0.006869294 -0.034550726 0.008720024 -0.02642851 0.03513938 0.01890913 0.021864941 -0.00032739036
0.018496646 -0.012932753 -0.013442139 -0.027837593 0.02094562 0.0024071615 -0.02136656 0.026619898
-0.01701678 -0.032745022 -0.015433031 0.026483303 0.029450614 0.03522947 0.030378755 -0.03206799
0.013779739 -0.0086740125 -0.0075453017 0.033911448 -0.022133559 -0.023841422 0.0027163723 0.029332504
0.025204372 -0.0073660295 0.022148516 -0.026268853 -0.0342639 -0.038687643 0.012986098 -0.024959512
-0.013469159 -0.01897147 -0.026356654 0.002737069 0.0053129373 0.014043642 0.01686755 -0.028147899
-0.005138527 0.030104596 -0.0056532756 -0.028668115 0.022116184 0.036044527 -0.027328646 0.028150601
0.0070761126 0.032548115 0.024636416 -0.0052829906 -0.015401916 -0.023330946 -0.028503507 -0.0021923825
0.0045220824 -0.053454146 -0.039211147 -0.018960804 -0.0533791 -0.049114175 -0.019582037 0.004033125
-0.044772267 -0.026248131 0.026686005 -0.014340107 0.033710565 0.03040996 0.022067461 -0.00711259
0.008245317 0.002011139 -0.020144084 0.00055835315 -0.015309045 0.008825174 -0.013421629 -0.027590247
-0.028432973 -0.024520313 -0.0053367573 -0.02880105 -0.07748619 -0.011400269 -0.03968431 -0.019410891
-0.036030382 -0.009204014 0.019961607 0.0023206358 -0.04510892 -0.024745028 0.022366244 -0.01242599
0.018378876 -0.00425086 -0.033318248 0.027407704 0.012244824 -0.015375544 -0.026328573 -0.03014456
-0.029831689 0.018830648 8.0251004e-05 -0.028685443 -0.0052239494 0.0026025355 -0.04997391 -0.04285621
0.007912397 -0.0040305858 -0.019538142 -0.0065145204 -0.026233884 -0.06506973 -0.016797224 -0.0055746706
0.007875829 0.044701446 0.012881752 -0.020168142 -0.016760798 0.011739056 0.01684769 -0.0015183524
-0.033464152 -0.01821407 0.023748653 -0.012437247 0.028670028 -0.027129054 0.035921432 0.022147167
0.013606614 0.019236838 0.053734533 0.04127899 0.004743783 -0.015481113 0.021198675 0.01263996
-0.02797777 0.028296005 0.055844605 0.005965284 0.02862278 0.00079161534 -0.025320917 -0.0062662615
-0.0100210095 0.0026476162 -0.021922268 0.029918896 0.0048567583 0.0068586515 0.03312698 0.013912215
0.017284254 0.025829654 0.0046274043 0.034648146 0.067242496 0.038927305 0.061332576 -0.017582852
0.01121342 0.04073622 0.035805292 0.02018681 0.053347513 0.02972191 0.030450689 0.037728425
0.089999735 0.068067774 0.009370142 0.016207663 0.0069913287 -0.012165943 -0.023524323 0.0036884346
0.03377816 -0.0130474055 0.021326749 0.033331502 0.043852437 0.002924143 0.030058969 0.015876414
0.06914895 0.055658627 0.043387834 0.06286946 0.041834585 0.042287994 0.07315921 -0.0037615648
0.007720537 -0.011243426 0.01685854 0.055989154 0.047252886 0.028133014 0.0434451 0.04080775
-0.007213543 0.007039497 -0.01676198 -0.03030292 -0.00013658183 -0.015866287 0.009229833 0.008507142

bias f4 [128]
00000000: 55fc c93c 9c3e d339 c52f 043d f30c d83c
00000010: f94d b2bc 9354 f83c db1a 84bc 0978 fcbc
00000020: c27e a6bc 8b34 febc c473 95bc b383 ccbb
00000030: ede4 9e3c 73ac 9a3c 23bb b4bb 8770 d93b
00000040: ca97 35bc dc38 a93c a27c b03c 7f04 cd3c
00000050: 13fd 0bbd aa84 53bb d868 373c 1993 4abb
00000060: 5a88 983c df76 78bc e381 173b e6c8 81bc
00000070: 4d08 573c 7e7e ceba 5eb2 b73c 11b0 243b
00000080: 52ae 89ba afed cb3b ad5e f93c 34dd 1dbc
00000090: f9fa c93c 70c8 cf3c 0c19 a03c c660 8e3a
000000a0: 8f1f 1b3d 4c1a 4ebc b8b7 f8bc bd61 9c3c
000000b0: 44ed d23c 05ab 5c3c b1c7 b4bc 98bb e1ba
000000c0: ebf4 11bc aa18 bd3b f9d8 d1bc bf09 103d
000000d0: d0b7 bdbc b1cb ff3b 7bec 83bc 9df4 c2bc
000000e0: 2c79 32bd 330d 503c cb4d 6e3c 009a a23c
000000f0: 9ac7 133c 81fa 973c 05d7 f3bc 807c ce3c
00000100: 6d01 203c a51d 543c eeaf 143d 1402 adbc
00000110: c1f7 be3c 2235 17bc fdf5 123b 6a8c e5bc
00000120: a088 543c eae9 183d af63 85bb 6ecd d1bc
00000130: 32e6 593b 71bc 113d 2824 803c 1a7f 62bc
00000140: f410 e3bc 997c 7b3c 4151 433c ef77 d13b
00000150: 4f1e 95bc 53e6 9cbc b261 b33c 7601 c2ba
00000160: c9d8 1dbc 2ec4 e63b 0230 a83c d8ff c5bc
00000170: 77ea 01bd e19c 74bc 9d60 0dbd a6f5 dbbb
00000180: e3dd 08bd e366 3fbd 9884 f8bc b1eb 0a3b
00000190: 15b2 b43c 707f 263c 1bb1 263d d0ab 8e3c
000001a0: f2cd eebc 30fe 15bd a669 86bc bdfe 45bc
000001b0: 5886 b73b 82ff da3b 7eed bbbc 2f23 4b3c
000001c0: 9a35 10bd 0787 31bc aa8b fe3c e6a3 043d
000001d0: f275 5fbc 38c3 4dbc db71 c4bc b5a4 8e3c
000001e0: 053a 89bc 9398 023d 5373 573c 4696 0b3c
000001f0: 063e 0fbc 3d32 e3bc e409 f93c b7af 323c
0.024656454 0.00040291704 0.03227212 0.026373362 -0.021765696 0.030313766 -0.016126087 -0.030818956
-0.020324115 -0.031030914 -0.018243678 -0.0062412857 0.01939627 0.018881058 -0.0055154725 0.0066357288
-0.011083553 0.020656995 0.021543805 0.025026558 -0.034176897 -0.003227512 0.01119443 -0.003091043
0.018619705 -0.01516506 0.002311819 -0.015842866 0.013124538 -0.001575425 0.02242392 0.0025129358
-0.0010504222 0.0062234025 0.030440653 -0.0096352585 0.024655806 0.02536413 0.019543193 0.0010862581
0.037871893 -0.012579512 -0.030361041 0.019089574 0.025747903 0.013468509 -0.022067877 -0.0017222045
-0.008908491 0.0057707625 -0.025616156 0.035165545 -0.023158938 0.0078062643 -0.016103974 -0.023798281
-0.04357259 0.012698459 0.0145449145 0.019848824 0.009019757 0.018552067 -0.029765615 0.02520585
0.009765965 0.012946521 0.036300592 -0.021119155 0.023311498 -0.009228976 0.0022424452 -0.028021056
0.012972027 0.037332453 -0.004070721 -0.025610652 0.003324878 0.035580102 0.01564224 -0.013824249
-0.027718045 0.015349531 0.011921228 0.006392471 -0.018202929 -0.019152796 0.02189717 -0.0014801461
-0.009634205 0.0070424294 0.020530704 -0.024169847 -0.031717744 -0.014929981 -0.034515966 -0.006712633
-0.033414733 -0.04672898 -0.030336663 0.0021197612 0.022057572 0.010162219 0.040696245 0.017415911
-0.029150937 -0.036619365 -0.016407799 -0.01208466 0.005600732 0.006683291 -0.022940394 0.012398525
-0.03520737 -0.010835416 0.031072456 0.03238287 -0.01363896 -0.012558751 -0.023980072 0.017412523
-0.016751299 0.031883787 0.013150054 0.008519715 -0.008742815 -0.027733916 0.030400224 0.0109061515

weight f4 [64, 128]
00000000: 6035 4b3e 8e22 eebc 594f 243e 8f90 76bd
00000010: 5a1a 243e 9fd8 9e3d 7b72 5e3d e307 ae3d
00000020: 055b 7ebc ba70 463c e19b 423d e6be d0bc
00000030: 0261 ee3c 7a4d 56bd eda9 ffbd 89c7 f8bd
00000040: ea3a 833d b75c 513e c063 813c c320 523c
00000050: 03b5 9cbd 7aa3 cebd 8207 953d 5550 3b3e
00000060: 8387 893d ca7d f6bc 03c8 c23b 8936 25bd
00000070: 9cd9 23be a8cc 2dbe c4d4 9b3c a79b 1a3e
00000080: 4fa3 533b 014b 2fbd 7058 e4bc 3f8c 4dbd
00000090: 8cd4 7b3d d36a d4bd e822 d43d e7f9 dd3c
000000a0: 26e1 b33d 3ad3 51be f26d a63d a95e a3bb
000000b0: bb5b 39bc b6aa 253e c40e 01be 8eb1 8f3c
000000c0: 1d9a 2fbd 9c24 10bd 3aa2 e1bd 33bd 4e3d
000000d0: 605c e0bc 9f1b bc3d 5940 d73c 64fc 303e
000000e0: c91a 18be 722e d5bd 0e0e e63d f1d8 1a3e
000000f0: 9bd6 113d bfe1 153e 9ba4 1b3e eb70 273c
00000100: 0fbc 4cbd bd33 a1bd bcae e0bd dbc1 133e
00000110: a498 e4bd e598 73bd 3c1f 0b3e db07 e1bd
00000120: 995c f93d 8718 7ebc 1827 85bd d80f 473e
00000130: d6d5 5ebd 21de fabd ce80 f13c 293f 133e
00000140: c103 02be 9577 d93a 83ab b2bd 8247 e2bb
00000150: 829c 36be a3dc 293e 3893 853e 7cb5 c8bd
00000160: 988d 053e a946 453e 7f31 0abd dab8 35bb
00000170: 0cb3 16be 8e14 273d 0865 b8bc f5ea 0b3e
00000180: 61e0 833d 7e51 6c3d a27c 013e c88a 0e3d
00000190: ecf0 cf3c 7482 87bc 4237 03bd 8c02 ef3d
000001a0: 0b6a 913d 2ee6 ca3d c18a 4c3e a4fc 85bd
000001b0: 61ff 63bc 7b26 09bd 145b 6ebd 0bb1 3abd
000001c0: daa9 f23c 6b29 903d 5442 d53c 02e0 ddbc
000001d0: 9810 b0bd 52d8 d5bc 77d7 cebb bf78 63bc
000001e0: 57c3 8d3d 44a1 83bd 7441 6ebe 4571 183e
000001f0: 524b 22be 5be1 3bbd 830a 5e3d 50bc 1fbe
00000200: 12f2 5ebd e839 25be 632c 0fbd 4c5d 2abd
00000210: e930 75bd f719 be3d b6af dbbd 9d34 26bd
00000220: 0511 d23c 2013 863d 668c 963d ef42 76bd
00000230: 01b9 b5bc 8110 c73e 7c2d ae3d 83b7 4d3e
00000240: a327 9fbd 433d 993c 4afc b6bd a126 173d
00000250: 54eb d23c 97fc f73c c7b6 e0bc 0f0b 343d
00000260: 0cd1 e23d 92fd 4ebe 152a 033e b916 243d
00000270: 49a2 023c 92e7 a53c 2a71 ccbc 4fcd aa3d
00000280: 2850 623d c268 c53d eff6 ffbc 23ff 003e
00000290: 7171 44bd 4bae 3bbd 23b4 ba3a cf39 9bbd
000002a0: 68db a9bd 03a3 c73c dc5f 243e 47e3 27bd
000002b0: 4683 ecbc cb56 d73d 469a 443e 4558 30bd
000002c0: d3a5 d43d d73a b03d 09e9 053c fc0b d6bc
000002d0: 2510 cb3d 961b 04bc 78d4 113c 2c08 0e3e
000002e0: 20e7 833e 7398 103d 5312 52bd 2733 fe3c
000002f0: 7b79 09be 5a48 8b3c 9bf0 3a3d 074c 833d
00000300: f03e 99bc bff8 483d 9bd8 f53d 48e0 af3d
00000310: 0837 51bd 13f8 d33c e658 34bd e833 36bd
00000320: fb02 fbbc 321f 633d 85aa 65bd 9e81 9fbd
00000330: 0459 963d 6b6e b83d fb3b f7bc d847 b03d
00000340: 4fa9 cb3d 2c1e 61bc 8ab5 9abd f977 323e
00000350: d248 2c3d 4bb7 b4bd a1bd be3c 94ce 48bd
00000360: 8ea5 323d 6498 953d 6617 913d f37d d63d
00000370: 6028 323d 43be 79bb 92cb 003e 8f36 d3bd
00000380: 086a 88bd 39e6 5b3e 5ca3 21bd ee38 e03c
00000390: 75f6 03bd 1674 1e3e b4b3 433e 1472 d13d
000003a0: cb1b 54bc 9558 093e 6574 e7bd 0322 8ebc
000003b0: d7a3 5c3d ee74 b1bd fd64 433d 62b3 74be
000003c0: 591b 063c 70dc 0e3d 3453 6e3e d9f0 f33c
000003d0: 8265 8f3c f772 053a 027f 70bc b446 933e
000003e0: d88a 0bbd 47a2 55bd d797 8d3d 2bb1 c63c
000003f0: f830 503d 5a09 d8bd 8080 95bc 5b55 d53d
0.1984458 -0.029069211 0.16045894 -0.060196456 0.16025677 0.07756161 0.054308396 0.08497598
-0.01552463 0.012111837 0.04751194 -0.025481652 0.029098991 -0.05231998 -0.12483583 -0.12147433
0.06407721 0.20445524 0.015794635 0.012825194 -0.07651713 -0.100897744 0.072768226 0.18292363
0.067153 -0.030089278 0.0059442534 -0.040335212 -0.1600098 -0.16972601 0.019022353 0.15098439
0.0032293384 -0.04279614 -0.027874202 -0.050182577 0.061481997 -0.103719376 0.1035822 0.027096702
0.08783178 -0.20490733 0.08126439 -0.0049856496 -0.011313374 0.16178402 -0.12603289 0.01754072
-0.042871583 -0.035191163 -0.110172704 0.050473403 -0.027387798 0.09184956 0.0262758 0.1728378
-0.14853968 -0.10409249 0.112331495 0.15121819 0.035605054 0.14636897 0.15199511 0.010219793
-0.049984034 -0.078711964 -0.10970828 0.14429419 -0.111619264 -0.059471983 0.13586134 -0.109878264
0.12175865 -0.015508777 -0.06501597 0.19439638 -0.05440315 -0.12249399 0.029480364 0.14379562
-0.12696745 0.0016591424 -0.087241195 -0.006905497 -0.1783314 0.16588072 0.26088881 -0.098002404
0.13042295 0.19265236 -0.03373861 -0.0027728588 -0.14716738 0.040791087 -0.022509113 0.13663848
0.06439281 0.057694905 0.126452 0.03480032 0.025383435 -0.016541697 -0.03203512 0.11670408
0.07100304 0.099071845 0.19974805 -0.06542328 -0.013915868 -0.033483963 -0.058192328 -0.045578998
0.029622007 0.0703915 0.026032604 -0.027084354 -0.08596915 -0.026104126 -0.0063123065 -0.013883769
0.06922024 -0.06427243 -0.23267156 0.14886959 -0.15849045 -0.045869213 0.054209244 -0.1559918
-0.054430075 -0.1613537 -0.03495444 -0.04159288 -0.059861097 0.09282296 -0.107268736 -0.04057752
0.025642881 0.065466166 0.073509976 -0.060122427 -0.022182943 0.3887978 0.08504769 0.20089535
-0.07771232 0.01870597 -0.08934839 0.036902074 0.025746979 0.030271811 -0.027430905 0.04395586
0.11075029 -0.20213917 0.12809022 0.040060733 0.007973262 0.020252023 -0.024956305 0.08339941
0.055252224 0.096391216 -0.031245677 0.12597327 -0.04795975 -0.045820516 0.0014244359 -0.075793855
-0.082938015 0.024369722 0.16052192 -0.040988233 -0.02887119 0.10514601 0.19199476 -0.04305293
0.10383191 0.08604973 0.008173236 -0.026128761 0.09915189 -0.008063218 0.008900754 0.13870305
0.25762272 0.035301637 -0.051287007 0.03103025 -0.13425247 0.017002273 0.045639616 0.064109854
-0.018706769 0.049065348 0.12004205 0.085877 -0.051077873 0.025875127 -0.044030093 -0.044483095
-0.03064107 0.055449672 -0.056070823 -0.077883944 0.07341197 0.090054356 -0.030179968 0.08607453
0.099444024 -0.013740104 -0.07554157 0.17428578 0.042061634 -0.08824023 0.023283781 -0.049025133
0.043614917 0.07304457 0.07084541 0.10473242 0.043495536 -0.003810779 0.12577656 -0.103131406
-0.06660849 0.21474542 -0.039462432 0.027370896 -0.03221746 0.15473971 0.1911152 0.10226837
-0.0129460795 0.13412698 -0.11301497 -0.017350202 0.053867187 -0.08664881 0.04770373 -0.23896554
0.008185231 0.034878194 0.23273927 0.029777931 0.017504457 0.00050906785 -0.0146787185 0.2876488
-0.03406796 -0.052156713 0.06913727 0.024254402 0.05082795 -0.10548659 -0.01824975 0.10416671

bias f4 [64]
00000000: 4ee9 343d d57e ce3b 2cd6 c63d bd3b ba3d
00000010: c855 773d 15aa b3bd 839f 39bd c68b c83d
00000020: bb7b 913d 7e87 3ebd a507 a0bd d578 e63d
00000030: e837 4dbd 19bc 873d 91c6 2138 74a4 acbc
00000040: e9ab 37bd efb1 b93d 97ac aa3b 9d31 9b3d
00000050: 1081 b13b 86c0 d83d 1f2b 51bd 17fc 1e3c
00000060: 429e a43c d286 a33c a727 9b3d 7240 36bd
00000070: 2934 97bd db09 60bd 62fc 07bd ddf9 85bd
00000080: af0b c6bc b006 063d 5031 bb3d 0a44 833d
00000090: d055 5f3d 452b 683d 27e5 753d 35e3 ea3c
000000a0: 0998 9e3d e720 fa3b 9e45 48bd 40c2 043e
000000b0: 199a 25bc bcc6 3e3d 2d33 663d 9409 09bc
000000c0: b93b 86bd f289 283c 19b7 bb3d b4a4 41bd
000000d0: d190 dbbc 3752 0bbd 99d8 cc3c 635a 9a3d
000000e0: f616 33bd b872 6abc e2f3 253d f197 9d3d
000000f0: e468 09bd adba b43d b25f 52bd 7a86 133d
0.04416781 0.0063017407 0.09708819 0.090934254 0.06038454 -0.08772675 -0.045318138 0.09792285
0.07103678 -0.046515934 -0.07813958 0.11253516 -0.050102144 0.06627674 3.857032e-05 -0.021074511
-0.04484168 0.09067141 0.0052085626 0.07577822 0.005416997 0.10583596 -0.051066514 0.009703658
0.020094994 0.019961748 0.075759225 -0.044495054 -0.07382996 -0.0546969 -0.033199675 -0.06541798
-0.024175493 0.03272122 0.09140265 0.06409462 0.054525197 0.05668189 0.06003299 0.028672794
0.07743842 0.007633317 -0.048894517 0.12964725 -0.0101075405 0.046576247 0.05620115 -0.0083641
-0.0655436 0.010286795 0.091657825 -0.047276214 -0.026802452 -0.034013953 0.025005626 0.07536771
-0.04372307 -0.014309578 0.040515788 0.07694996 -0.033547297 0.08824668 -0.051360793 0.03601692

weight f4 [10, 64]
00000000: e4f0 0dbe 126e b0be 083b be3d c2ac d5be
00000010: 851e 1fbe e9d0 f33d 6d11 153e 434d e03e
00000020: 3cda 4c3d 20b8 1bbd 50a8 4a3e c828 7abe
00000030: 600e 30bd b344 dabe 97cd 5d3e 54be 8e3d
00000040: d9aa 06be 67ff 9abe 2089 61bd 7da2 45be
00000050: 5fd2 1f3e f90f 693d cb79 4d3e 5f40 d1bd
00000060: 91e3 343e b213 783d b2df 6cbd 9edd 82be
00000070: c4ec 74be 1c68 cbbc 3a5a ccbd 0bcc 943e
00000080: 665e 90bd 9b98 a63d 1955 75be f14f 013e
00000090: 801e c7bd 0f4b 633e ae3b a1be 9d31 393b
000000a0: 1138 31bd faaa 35be 26fa c0bd ac22 c33e
000000b0: 8fd6 70be 4f4f b7be 73a9 fd3d 1385 983e
000000c0: 6318 41be 9a7a b83b 0faf 013f 5734 c13c
000000d0: 7588 07be 3a75 3bbd 9f61 6abe 2aca 103f
000000e0: 3f56 fe3d ce27 793e 6a64 7f3e 17ce d9bd
000000f0: 4f2f 923e a6a3 f8ba 69aa b4be c921 cdbd
00000100: 8076 1a3f 5d4e 903d fd11 cebe eb70 a3bd
00000110: 55a1 a53e 16f2 c33d 3ace ae3c 3b80 2c3e
00000120: aeab fbbd 058d e2bd 6cff 993e 9bcf bbbe
00000130: 0bc6 b03d 2045 a93e 5bf1 07bc 2fcc 953d
00000140: fe13 19be 3133 8cbe 1a08 bb3d 56d6 22be
00000150: 7526 c0be 6a6e 313d 22c0 e0bd b931 823d
00000160: e65b 43bd 4250 eabe 57a9 3c3c 09c3 cd3e
00000170: 957b 603e ad31 453e afd5 c23c 2dcb 423e
00000180: 5f6f c93d 42b1 b73b f234 653e a2c8 e3bd
00000190: 7c68 863d dd2b 5bbc c8bd 8b3e 135f ce3d
000001a0: 96be 47bd 8dbf 2f3d 89f3 c73c 4588 e5be
000001b0: bfd7 7e3e f27f a53e 057a 043e b555 423e
000001c0: 4855 c43d 14ae 173d 07fd aabc 8c45 c33d
000001d0: 2ae2 56be b41b e9bc 9ee4 8dbe 06d0 40be
000001e0: 3fc1 6a3e d39b e2bd ceec 90be d62b b83d
000001f0: 53b0 b7bd bebf 8cbe a9d3 833e 38ac a83e
00000200: 4d70 0a3d 6caa 00bf c465 b13e 56e7 863d
00000210: a9f5 b2bc 3ce5 7d3d 5c2f b93d 5add 483d
00000220: 2092 d6be 2fa6 bcbd 9fb2 cd3e fab7 263e
00000230: cae6 4a3d 0105 58bd ba15 163e b823 1fbd
00000240: b275 00be b88a 39be ce72 ad3e 0091 d2be
00000250: c93f 313e b908 5f3d c4a6 693e 9518 c13d
00000260: a939 0bbd a81f e53e 8241 20bc 0caa 773e
00000270: 90f3 0fbe 4c04 0bbe c926 fdbd 6241 043f
00000280: 39dc 41be 504c 8d3d cbd1 90be 1d6d d43d
00000290: 8b89 133f 232c 80be ece3 d13e cc19 86bd
000002a0: 3978 fcbd 1693 d63e ec56 ba3d 6eff 7cbe
000002b0: 4067 f3bd 42ac c0be ce29 793d e385 b63e
000002c0: 96fc 9a3e ad99 023d 69ac 52be 94d3 ccbd
000002d0: 7e3f 953e 11b6 1abe a132 65be 4e76 c53d
000002e0: 7da3 66be 8f93 89be e4f0 d5bd c9e8 7ebd
000002f0: 8292 503e e526 80be 7d90 edbc f132 4dbe
00000300: e2dd 593d 30aa ccbd 5e9e 5e3e 4483 7f3e
00000310: 8222 a0be 0ce3 c13b c5ec f23e 785f 113d
00000320: 3850 8c3e e68f 99be 557d 79bd 8815 43be
00000330: c7b0 1abd c9bc d83e 7e1d 8b3d 72bc fb3d
00000340: 8a7c 123e b4f8 78bc 1930 b9bc d1f8 053e
00000350: ea4b ffbd e88c 8c3c 2bde b53c da5f 51bd
00000360: 39e3 5e3e 9270 a83e 46c6 25be cad8 8dbe
00000370: 1a1f 5c3e e3ee 033e f18c 223c ef18 403c
00000380: 945a e4bd 76cc 43bd 0b9c cdbd 7551 d93c
00000390: ff43 973e 5f63 523d dff8 abbe e161 493e
000003a0: 1f24 8cbd 5f34 563e 4935 2c3e 5313 dcbe
000003b0: 88f1 dd3e affd 0fbf 9918 24be fa36 e5bd
000003c0: 6e89 603e 0c93 9fbd 5442 b0be 3fd8 1bbd
000003d0: 1616 40be e03a 023e cd0a 303f 8ea8 2bbd
000003e0: 2f17 be3d 8fbc c73e 124b b6be b1f9 923d
000003f0: a135 c2be 99e0 903e 0bfb b63d 2b7d 953d
-0.13861424 -0.34458977 0.09288603 -0.41733366 -0.15538986 0.11905081 0.14557429 0.43808946
0.050012812 -0.038017392 0.19790769 -0.2442962 -0.04298246 -0.42630538 0.21660458 0.06969896
-0.1315111 -0.30272982 -0.055062413 -0.19300266 0.15607594 0.0569 0.20065992 -0.10217356
0.17664935 0.060565658 -0.05783052 -0.25559705 -0.23918444 -0.024829917 -0.09978147 0.29061922
-0.07049255 0.08134576 -0.23958243 0.12628151 -0.09722614 0.22196601 -0.31490844 0.0028258332
-0.04326636 -0.17741004 -0.09422712 0.3811239 -0.23519348 -0.35802695 0.123858355 0.29789028
-0.18856959 0.0056298496 0.50657743 0.023584528 -0.13235648 -0.045766093 -0.22888802 0.5655848
0.12418794 0.2433159 0.24940649 -0.10635012 0.2855172 -0.001896967 -0.35286263 -0.1001621
0.60337067 0.070461966 -0.402481 -0.07980522 0.3234965 0.095676586 0.02133857 0.16845791
-0.12288605 -0.110620536 0.30077684 -0.36681828 0.08631524 0.3306055 -0.00829729 0.073143356
-0.14949033 -0.27382806 0.091324046 -0.15902075 -0.3752934 0.04331819 -0.109741464 0.0635714
-0.047695063 -0.45764357 0.011514983 0.40187863 0.21922143 0.19257231 0.023783533 0.19022818
0.098356955 0.0056058476 0.22383478 -0.11122252 0.065628976 -0.013377157 0.2729323 0.10076728
-0.04876574 0.042907286 0.024408119 -0.44830528 0.24886988 0.32324177 0.12937172 0.18978007
0.095865786 0.03703125 -0.020872606 0.095347494 -0.20984712 -0.028455593 -0.27713484 -0.18829355
0.2292528 -0.11064877 -0.28305668 0.08992736 -0.08969178 -0.27490038 0.2574742 0.32943892
0.033798505 -0.50260043 0.34647954 0.065870926 -0.021845656 0.061986193 0.09042236 0.049039222
-0.4190836 -0.092113845 0.4017534 0.16281119 0.049536504 -0.052739147 0.14656726 -0.038852423
-0.12544897 -0.18119323 0.33876652 -0.4112625 0.17309488 0.054451678 0.22817522 0.09428517
-0.033990536 0.44750714 -0.009781243 0.24185961 -0.14057755 -0.13575858 -0.12360913 0.51662266
-0.18931665 0.06899321 -0.2828506 0.10372374 0.5763175 -0.25033674 0.40994203 -0.06547889
-0.12327618 0.41909093 0.0909861 -0.24706814 -0.11884928 -0.37631422 0.060830884 0.35649022
0.30270833 0.031884838 -0.20573582 -0.10001293 0.29150003 -0.15108515 -0.22382595 0.096417055
-0.22523303 -0.2687039 -0.10446337 -0.06223372 0.20368388 -0.25029674 -0.028999561 -0.20038964
0.05319012 -0.09993398 0.217401 0.24952418 -0.31276327 0.0059169587 0.47446266 0.035491437
0.27404952 -0.29992598 -0.06091054 -0.19051182 -0.037766244 0.42331532 0.067927346 0.122918025
0.1430532 -0.015196014 -0.022605943 0.13083197 -0.12465651 0.017157033 0.022200665 -0.0511168
0.21766366 0.32898384 -0.16188917 -0.2770446 0.2149624 0.12884097 0.009921298 0.011724695
-0.11150089 -0.04780241 -0.100395285 0.0265281 0.29544064 0.0513643 -0.3358831 0.19666244
-0.06842827 0.20918415 0.16817202 -0.42983493 0.43348336 -0.56246465 -0.16025008 -0.111921266
0.21927425 -0.07791719 -0.34425604 -0.038048025 -0.18758425 0.12717772 0.6876648 -0.041908793
0.09281766 0.39011046 -0.3560415 0.07176531 -0.3793154 0.28296354 0.089346014 0.072992645

bias f4 [10]
00000000: a9e5 743c fa6e a63d 8235 e2bd 7036 cabd
00000010: 5567 8b3d 96ce e23d 313d 9f3b ee96 4a3c
00000020: 2f7e 233e 79d2 a83d
0.014947333 0.08126636 -0.11045362 -0.098736644 0.068068184 0.110745594 0.0048595895 0.012365086
0.15966104 0.082432695
