resources/python/pavel/model.bin (torch, 430367 bytes, 6 tensors)

linear1.weight f4 [125, 784]
000000 c5 24 4d bb 0e a4 06 3c 76 f6 c1 3a b4 02 85 bb
       -0.0031302434 0.008217825 0.0014798183 -0.00405916
000010 1b 71 e5 bb 95 3d fc 3c 90 28 ba 3a 08 79 04 3d
       -0.0070020086 0.030791083 0.0014202762 0.032341987
000020 29 63 79 bc 28 8f a9 3c b2 63 84 39 0f ed c1 bc
       -0.0152213955 0.020698145 0.0002525128 -0.023672609
000030 73 70 a2 bc 70 7f 16 3b a5 de 27 bc 1f d5 19 3c
       -0.01982901 0.0022964142 -0.010245954 0.009389191
000040 fe e6 ea bb 43 5f 52 3b 74 1a 95 bc 1f af 90 3c
       -0.0071686497 0.0032100237 -0.01820109 0.01766163
000050 3f ae 9a bc fd 54 f7 3c db 77 53 3c 31 a1 fa 3c
       -0.018881915 0.030191893 0.012906994 0.03059444
000060 71 ca ca bc f5 ed 66 bc 70 8c 22 3d af 4d 50 3c
       -0.024754735 -0.014094819 0.039684713 0.012713834
000070 0b 1f bb 3c 67 e2 00 3d 1d f6 96 bb 84 fc bc bc
       0.02284195 0.031465914 -0.0046069757 -0.023069628
000080 00 88 50 bc 10 9f 8a bb 9d 80 29 bc 2d 42 c4 3c
       -0.012727737 -0.0042303875 -0.010345605 0.023957336
000090 c7 f6 10 3d 60 d7 b9 bb 5e b7 d7 bc 6b 14 cc bc
       0.035391595 -0.0056714267 -0.026332553 -0.02491208
0000a0 0a af 99 bc 33 e6 19 3d 8f a6 31 3a 7d d9 20 3a
       -0.018760223 0.03757305 0.00067768333 0.0006135924
0000b0 b6 21 86 3c 92 45 61 3c 86 1f dc bc 47 a6 a0 bc
       0.016373497 0.013749497 -0.0268705 -0.019610537
0000c0 11 06 f1 bc 27 ce 9d bc 37 3e d6 3c f7 f2 ec 3c
       -0.029421838 -0.01926334 0.026152713 0.028924448
0000d0 57 87 9c bb af f9 00 3d 4f 54 77 3c 06 44 be bc
       -0.004776876 0.031488117 0.015095784 -0.023225795
0000e0 b3 ba af 3c b7 54 01 3d e0 c0 e1 bc 4a fe 0b 3d
       0.02145133 0.03157493 -0.02755779 0.034178056
0000f0 4e ce 94 3c 6f 71 04 3c ea 53 00 3d 54 37 39 3b
       0.01816478 0.008083685 0.031330027 0.0028261738
000100 3e 39 f8 3a ab fd 1d 3d 75 2b ea 3c 44 a8 f4 3c
       0.0018937958 0.038571995 0.028585175 0.029865392
000110 51 5f 06 3d 95 8a b0 3c 3f fa c7 3c cb e2 08 3d
       0.032805745 0.021550456 0.024411319 0.03341941
000120 c5 d4 9a ba 8e 4b 1b 3c 81 8d 0b 3d e9 99 88 bc
       -0.0011812678 0.009478463 0.034070496 -0.016674953
000130 b2 e4 25 3d 03 c2 99 3c fc e4 11 3d b8 04 b6 bc
       0.040501304 0.01876927 0.035618767 -0.022219047
000140 b3 ab 3c 3c 83 46 95 bc 6f 8c dc bb 82 a6 14 3d
       0.011515546 -0.0182221 -0.006730608 0.036291607
000150 b8 dc 5a 3c 63 67 dd 3c 17 36 df 3c 67 97 2c 3c
       0.0133582875 0.027026838 0.027247472 0.010534144
000160 2c fd d9 3b 49 b1 a3 3c fc cc 23 3d c6 23 fc bb
       0.006652495 0.019981997 0.03999041 -0.007694694
000170 8d 11 1c bc bf 1f ec 3c 40 7e ea 3c ed 83 c5 bc
       -0.009525669 0.028823731 0.028624654 -0.024110759
000180 11 4f f3 3c 4a ad 1c 3d b2 09 56 bb 65 65 6e bc
       0.029700788 0.0382512 -0.0032659587 -0.0145505415
000190 27 ac df bc fd 23 24 3d d9 c5 96 3c 97 74 9d bc
       -0.027303768 0.040073384 0.018404888 -0.019220633
0001a0 98 d9 c5 3c 3e c9 a9 3c f4 06 04 3d 7d be bd ba
       0.024151608 0.020725843 0.032233194 -0.0014476326
0001b0 b8 0b f0 bb 69 21 dd 3a 98 2c 07 bb 88 b2 c2 bc
       -0.0073256157 0.0016870919 -0.0020625945 -0.023766771
0001c0 5a 0b 18 3d e6 ce eb 3c 44 d1 cb 3c 66 c4 cf 3c
       0.0371202 0.02878518 0.024880059 0.025362205
0001d0 7d 1a 6a 3c f0 b8 0c 3d 73 35 ab 3c 19 bf 12 3d
       0.014288542 0.034356058 0.02089951 0.035826776
0001e0 c1 24 68 3c 47 14 e6 3c a7 38 21 bc e3 c6 8d bb
       0.014168919 0.02808584 -0.009840167 -0.0043266877
0001f0 1c c6 51 bb b7 78 85 3c 3c 13 9e 3c a5 d5 07 3d
       -0.0032008952 0.016292913 0.019296281 0.03316273
000200 21 58 1f 3c 6c 15 08 3d 79 b9 e4 bc 5c 02 ba ba
       0.009725601 0.033223554 -0.027920472 -0.0014191377
000210 c0 ff 18 bc 05 6d be bb b9 76 93 3c 2e ad 26 3d
       -0.009338319 -0.005811336 0.018000947 0.0406925
000220 eb 22 65 3c c3 2c ab bb b0 21 e1 bc 42 08 25 3d
       0.013985376 -0.005223842 -0.027481884 0.04029108
000230 45 1d ca bc 4f 8b 4e b9 f8 2e c0 bb 59 39 24 3d
       -0.02467216 -0.00019697587 -0.005864974 0.040093753
000240 76 85 f3 bc ed c1 c8 bc ee 10 b7 bc 48 28 7f 3c
       -0.029726725 -0.024506534 -0.02234694 0.015573569
000250 8e 7f fb 3c 3e d1 06 3d 14 f1 f7 3b 5e 3e 83 bc
       0.030700471 0.032914393 0.0075665805 -0.01602095
000260 1a e6 80 3c e8 93 4f bc 43 b4 a0 bc 83 a4 d8 3b
       0.015734721 -0.012669541 -0.019617205 0.006611408
000270 02 92 0a 3d 91 8e 16 3d 76 53 20 3d e9 7b 0a bb
       0.03383065 0.036757056 0.039142095 -0.0021130985
000280 27 80 c2 bc df c6 91 3c fa 5f b1 bc 22 f7 97 3c
       -0.023742748 0.017795024 -0.02165221 0.01855046
000290 a2 bd b5 3c fa a4 0d 3b 68 1e b3 bc d5 ec e0 3c
       0.02218515 0.0021613226 -0.021865085 0.02745668
0002a0 4c 1b 55 bb 09 23 cb bb f2 82 af bc 6a 80 a8 3c
       -0.003251749 -0.006199245 -0.021424744 0.020569045
0002b0 06 85 b2 bc e2 aa 62 3b a9 4f 82 bc 47 a6 c5 bb
       -0.021791946 0.0034586717 -0.015907126 -0.0060317847
0002c0 b5 ef a0 bc 6f aa f6 bc e6 79 9f bc cc 61 24 3b
       -0.019645551 -0.030110566 -0.019467305 0.0025082706
0002d0 02 c7 17 3c b2 b7 63 3c af b2 ff 3c f9 51 12 3d
       0.009263756 0.013898777 0.031213133 0.035722706
0002e0 da 10 18 bb 2f 9a 1d 3d f4 eb 9c 3c 35 78 a5 3a
       -0.0023203404 0.03847712 0.01915548 0.0012624325
0002f0 42 39 21 3c 03 27 14 bc 39 47 9b 3c 28 78 82 bc
       0.0098403115 -0.009042504 0.01895486 -0.015926436
000300 79 07 40 3c ba 91 a9 ba cc a6 4b 3c 2d 10 00 3d
       0.011720532 -0.0012937107 0.012429904 0.031265426
000310 4a 17 d5 bc da a7 e9 3b 0c f9 49 bb d0 d4 8b bc
       -0.026012082 0.007130605 -0.003081861 -0.01706925
000320 7d 46 fe 3c c5 37 ab 3c 0d 00 ed 3c db 24 8b 3c
       0.03103947 0.020900616 0.028930688 0.016985347
000330 ce f2 14 3d a5 d3 b4 3b 40 1f fe bb cc 09 27 bc
       0.03636437 0.005518394 -0.00775519 -0.010195207
000340 b5 f0 8c bb d4 e1 01 bc b6 70 e1 3c 8c d8 02 3d
       -0.0043011555 -0.007927377 0.027519565 0.031944796
000350 9f d7 e3 3c c8 46 d7 bc 9e f3 b1 bc 60 8b ae 3b
       0.027812777 -0.026278868 -0.021722611 0.0053266734
000360 b9 66 84 3c 66 aa e4 bc 7c e9 26 3d 3e bf 0e 3d
       0.016162263 -0.027913284 0.04075001 0.03485035
000370 13 46 c7 bb b4 e0 81 3c 1f ec 10 3d c5 42 a4 bc
       -0.0060813515 0.015854217 0.035381433 -0.02005137
000380 22 f1 15 3d 1a ba e7 3b aa ad 05 bc 1d bf 24 3d
       0.036606915 0.0070717456 -0.0081590805 0.040221322
000390 38 c7 34 bb 21 30 06 3d e4 88 9f 3c ae 3b c2 bc
       -0.0027584564 0.032760743 0.019474454 -0.023710098
0003a0 39 db 62 3c 29 3e f7 bc 52 c8 a2 3c d3 99 a4 bc
       0.013846212 -0.030181007 0.01987091 -0.02009288
0003b0 99 b8 e6 bc 92 4e 4f bc a5 49 06 3d ca cd fb 3c
       -0.028164195 -0.01265301 0.032785077 0.030737776
0003c0 89 50 99 bc 4d 00 ee bc 5b 82 6f 3c 33 54 f6 bc
       -0.01871516 -0.029052878 0.0146184815 -0.030069446
0003d0 5f ce 5f 3c ed 6b 9c 3c 0d 6f ea 3b af 47 f7 3c
       0.013660043 0.019094432 0.0071543516 0.030185549
0003e0 28 68 ee bc 92 d0 bf bb b0 1b 27 3c d5 04 61 3c
       -0.0291024 -0.005853721 0.010199472 0.013734062
0003f0 5b 17 f7 bc 4e a1 5a 38 9b b3 2f 3c fe d1 f3 3c
       -0.030162504 5.2125477e-05 0.010723974 0.029763218

linear1.bias f4 [125]
000000 74 ca c5 3c 00 89 8a b9 ed df 16 bf c6 3a a8 3c
       0.024144389 -0.00026423484 -0.58935434 0.020535838
000010 f4 c7 a5 3c 20 27 2a bd f1 d8 eb bc d5 9c 29 bf
       0.020236947 -0.04154122 -0.02878997 -0.6625493
000020 13 a5 c7 bd 30 4c d4 bc 31 41 d6 3e 1a 50 23 3e
       -0.09748282 -0.025915235 0.41846612 0.15948525
000030 1c 01 63 3d 54 e8 e8 bb fd 67 e1 bb 88 6c 9a 3c
       0.05542098 -0.007107774 -0.0068788514 0.01885058
000040 35 8e 2f 3d dc 56 23 be 59 f3 d1 bd 99 a2 a2 bb
       0.04286023 -0.15951103 -0.10251493 -0.004963231
000050 84 e6 85 3b 26 af 42 3c 1a 04 88 3e 83 07 a1 3c
       0.0040863175 0.011882579 0.2656563 0.019656902
000060 92 d8 0b bc 67 b3 ee 3b 4c 7d f3 be e7 ec e0 3c
       -0.008535521 0.00728457 -0.4755653 0.027456714
000070 67 03 72 bc 3f 5a 5f bc 97 cd a7 3b 40 5d cc bb
       -0.014771319 -0.013632356 0.0051209438 -0.006236702
000080 82 b3 c8 3b b7 f6 03 bd 0d 6a 88 3b ee b4 d6 bc
       0.0061249146 -0.032217707 0.004163033 -0.02620932
000090 f3 85 98 bc 4a 2e 11 bf c7 73 b5 3c 8a 62 f0 be
       -0.01861856 -0.56711257 0.022149934 -0.4695018
0000a0 3d 9f b1 3b f2 92 32 bd 1c 2a db bc 75 44 13 3c
       0.005420594 -0.04359717 -0.026753478 0.008988489
0000b0 7f 57 6d bc 4a f7 d8 bc 48 01 33 bf 20 eb 06 bb
       -0.014486193 -0.026485104 -0.6992383 -0.0020586923
0000c0 29 d2 e1 3e 0a e5 05 bf 1e b3 e7 3e 00 67 8e bb
       0.44105652 -0.5230261 0.45253843 -0.0043457747
0000d0 63 78 0a bd 64 cc b7 bb 1c a6 d4 3e 4b 7b e9 bc
       -0.033806216 -0.005609082 0.4153298 -0.028501173
0000e0 de 50 1e bd bc 48 02 bd 04 0f 6e 3d e8 74 25 bd
       -0.03865134 -0.031807646 0.05811979 -0.040394694
0000f0 94 47 24 3c 0c 2e 90 be 4e 9a e8 be 26 b4 ed 3c
       0.010026831 -0.2816013 -0.45430225 0.029016566
000100 de 8a 3e 3c 90 db e2 bb 26 c2 8c bd 3d 88 e1 3e
       0.011629788 -0.0069231465 -0.068729684 0.44049254
000110 bc 01 98 bc 6e 84 5c bc 4d 4a 1a bd 4d ce 67 3b
       -0.018555515 -0.013459308 -0.037668515 0.0035370768
000120 28 c0 d5 3c c8 3f ce bc d0 24 a2 3b fe 63 11 bd
       0.026092604 -0.025176898 0.004948236 -0.03549575
000130 20 71 a6 3c 11 7e 0e 3f ed e4 54 bc e0 86 23 bb
       0.020317614 0.5566111 -0.012994033 -0.0024952218
000140 1f 79 a4 bc 3b 73 a6 bc a6 ba e7 3d ca 86 aa bc
       -0.020077286 -0.020318618 0.11314897 -0.020816226
000150 9a 10 d8 3c 2c 9e e2 bc e0 2f b9 bc 90 7f 34 3a
       0.026375104 -0.027663313 -0.022605836 0.00068854634
000160 61 73 0b bd 90 d0 bf bc 00 6c ce 3a b0 1b ca 3c
       -0.03404558 -0.02341488 0.0015748739 0.024671406
000170 2f 78 ee 3c cc b4 06 bd 86 96 52 bc ce 39 95 3c
       0.029110042 -0.032887265 -0.01285327 0.01821604
000180 b0 05 81 bb 0e 95 86 bb c0 e0 1e bd a0 65 ab bc
       -0.0039374456 -0.004107124 -0.038788557 -0.020922482
000190 89 eb 68 bb f9 23 72 bc 20 c6 24 bb 3a ab 89 3c
       -0.003554078 -0.014779084 -0.0025142506 0.01680528
0001a0 7c e7 d5 3b c5 f0 08 bd ee 45 9f 3c 21 9b 0b bd
       0.006527839 -0.03343274 0.019442525 -0.03408349
0001b0 e5 ee d9 bc a6 34 6b 3b 9e 97 c3 bc 4d 46 11 bd
       -0.026603172 0.0035889535 -0.023876008 -0.035467435
0001c0 81 f2 b7 bb 08 c3 01 bd dd 1a 22 bf 94 38 94 be
       -0.0056136255 -0.031680137 -0.6332224 -0.28949416
0001d0 5e 7a bd bc ba 36 d4 bb 80 0e aa b9 c8 ba 97 3c
       -0.023129638 -0.0064762505 -0.0003243573 0.018521681
0001e0 1c f8 92 bc f5 44 49 3c 96 70 69 3b 72 af f2 3c
       -0.017940573 0.012284507 0.0035620085 0.029624674
0001f0 35 68 4f bc
       -0.012659122

linear2.weight f4 [65, 125]
000000 81 26 80 bd c0 bc 8a ba 04 2b 88 3d 41 d7 93 3d
       -0.06257344 -0.0010584816 0.066488296 0.07218791
000010 86 10 92 bc 63 4a 19 be 51 f0 90 3d cb f1 06 3e
       -0.017830145 -0.14969783 0.07077087 0.13178174
000020 41 8e 44 3d 36 91 5f 3d 04 cd a1 3d c1 a6 48 3d
       0.047987226 0.054581843 0.07900432 0.048987154
000030 d5 a5 da bc aa 06 43 3d f5 c1 99 bb 80 aa ac bd
       -0.026690403 0.047613777 -0.004692311 -0.08430958
000040 1e e1 80 3c 32 6f 91 bd 5c 39 88 3d f5 db c3 bc
       0.015732344 -0.07101287 0.066515654 -0.023908595
000050 29 ec 4d 3d b0 35 81 bd 8b c2 ef 3d b6 47 3f bd
       0.050274048 -0.06309068 0.11707028 -0.04669925
000060 e5 d8 ca bc 39 ad 54 3c d2 f7 28 be 4a a2 b4 bc
       -0.024761626 0.012980753 -0.16500786 -0.022050042
000070 a9 b0 bb bd a4 4c 97 bd 32 47 6b 3c c0 e4 80 bd
       -0.091645546 -0.07387665 0.014360236 -0.062936306
000080 d1 3a 53 3a 80 3b dc bc 8e a8 59 3d c6 42 5f 3d
       0.00080577756 -0.02688384 0.053139262 0.05450704
000090 46 43 22 3d 47 5e 2d 3c e6 f3 3d 3d 11 6e fe bb
       0.03961494 0.0105815595 0.046375178 -0.007764586
0000a0 f4 27 21 3d 45 b0 16 bd 91 b6 4e bc 5c 4b c4 3d
       0.039344743 -0.036789197 -0.012616769 0.09584686
0000b0 8d 37 3d bd 0f dc aa bd 96 ae ff 3b 6a f5 18 3d
       -0.046195555 -0.08342754 0.0078027947 0.03734342
0000c0 99 c2 60 3d ba 32 4d 3d be ef 21 be 00 61 b7 39
       0.054873083 0.050097205 -0.1581411 0.0003497675
0000d0 9c f4 45 3d 64 e8 bc 3c 75 49 4b bd 40 a7 10 bc
       0.04832898 0.023060031 -0.0496306 -0.008828938
0000e0 50 36 a2 bc e4 2c 2a 3d cd e9 2e 3d 81 50 1d be
       -0.019801289 0.041546717 0.04270344 -0.15362741
0000f0 57 62 24 bd 6f 0c ec bd a0 e1 66 3e 06 1b 1a 3d
       -0.040132847 -0.11525809 0.22547007 0.037623428
000100 ae 0a 81 3d 38 f1 7a bc 4a 8c fa bd bf d0 ff 3d
       0.06300865 -0.0153163 -0.12233789 0.12490987
000110 f2 20 bd bc d6 34 41 3d 46 26 38 3d 02 30 a0 3a
       -0.023086999 0.04716953 0.044958375 0.0012221339
000120 44 a1 fa bc b8 af 63 bd 2e 1e 69 3d 8d b9 f3 bb
       -0.030594476 -0.0555875 0.056913547 -0.007437891
000130 dc c1 8a bc ac 41 f5 3d 9e f2 07 bd 2f fc 60 bd
       -0.016938142 0.119754165 -0.033190362 -0.054928
000140 c0 b2 09 3d 0f 14 27 3d cc ba f7 bd 9f 98 27 3d
       0.033617735 0.040790614 -0.120961756 0.040917035
000150 50 01 3e 3c 47 bd a5 3d bf 85 8f 3d ac 09 8a 3d
       0.011596993 0.080927424 0.07007932 0.06740126
000160 73 d6 96 bd e0 b5 aa 38 2a 0e 04 bd 61 ea 9d bc
       -0.07365122 8.1401085e-05 -0.03224007 -0.0192768
000170 d5 da 2b bd 42 de 75 3d 98 37 f4 3c e1 a8 ad 3d
       -0.04195674 0.060026415 0.029811665 0.08479477
000180 4f d5 b1 3d a4 9c 8d bc 93 49 86 3d 51 5b ab 3d
       0.086832635 -0.017286606 0.06557002 0.083670266
000190 53 83 d4 bb 15 00 ac 3d dc a9 84 bd d8 ef 8d 3d
       -0.0064853816 0.08398453 -0.064777106 0.06930512
0001a0 c2 5f a9 bc ac 13 0b 3d e6 93 1a bd 71 b7 78 3d
       -0.020675544 0.033954307 -0.037738703 0.06072182
0001b0 39 98 8c 3c 85 4c f6 3d 7e 4d 61 bd f0 a5 cf bb
       0.01716243 0.12026314 -0.055005543 -0.00633692
0001c0 37 53 de 3c 54 da 90 3c f1 42 df bb 7e e1 25 bd
       0.02713929 0.017682232 -0.0068134 -0.04049825
0001d0 dc 67 01 3d f7 65 e6 bc 6b 8d 8e 3d 0a 47 1f bd
       0.03159319 -0.028124793 0.06960567 -0.038886108
0001e0 e6 72 9f bd 64 c5 a6 3c d8 f9 0c bc 75 d4 4c bd
       -0.07785587 0.020357795 -0.008604489 -0.050007302
0001f0 bc ac 8e bd 76 5e 81 bd fe 95 4c bd d5 b0 6e 3e
       -0.0696654 -0.06316845 -0.04994773 0.23309644
000200 d5 b0 fc bc 5d c5 55 bd e6 e2 e2 bd 85 c6 81 3d
       -0.030846039 -0.052190173 -0.11078434 0.06336693
000210 31 4e 18 3e bc 1e 8d 3d a0 dd 89 3b 13 e9 83 3d
       0.14873578 0.06890628 0.004207328 0.0644094
000220 fa 7c 11 bb 01 08 11 3e d2 43 4a 3d 03 8f e7 3d
       -0.0022199736 0.1416321 0.049381085 0.11306574
000230 55 d1 95 3d 2d 48 42 3d c1 5b 9c 3d a7 20 a3 3d
       0.073153175 0.047432113 0.07634688 0.07965212
000240 a7 33 80 3c 98 97 5a bc 84 03 a7 bd 84 8a 95 be
       0.01564963 -0.013341807 -0.081549674 -0.29207242
000250 49 4b 96 bd 66 14 3d 3d 98 8a 65 bd 50 2d c3 3d
       -0.07338578 0.04616203 -0.056040376 0.09530127
000260 ba 04 b4 bd 6d 6b b5 bd 50 11 f1 3b b7 b5 21 bd
       -0.08789964 -0.088583805 0.0073568 -0.039479937
000270 28 c6 fc 3c 92 bb 93 bd 3e eb f2 bc aa 6c 6c 3d
       0.030856207 -0.072135106 -0.029653188 0.057720818
000280 35 a4 8c 3d c4 41 d6 bc bc 4b eb 3d c2 ad 06 3d
       0.068672575 -0.026154406 0.114890546 0.032880552
000290 17 7e 8e 3e 8f 76 8f 3d 23 c1 13 3d 1f 5b 88 3d
       0.27830574 0.07005035 0.03607286 0.06658005
0002a0 7f 71 0f 3d 37 d8 8e bd ac 46 94 3c c8 d8 a1 3e
       0.035020348 -0.069748335 0.018100105 0.31610703
0002b0 60 c1 c6 3c 49 c6 62 3d 75 28 07 3e 6a 96 8c bd
       0.02426213 0.05536488 0.13199027 -0.06864627
0002c0 c9 37 87 3d 52 38 ba bc a8 bd 64 3c d9 b2 0f be
       0.06602437 -0.022731934 0.013961233 -0.14033069
0002d0 49 4d 58 bd de 2d 59 3d e6 76 65 3d 0f e6 23 3d
       -0.05280808 0.053022258 0.056021594 0.040014323
0002e0 2d f2 30 bd 4c 7f 35 bc 92 80 e6 3d e7 fa 7d 3d
       -0.043199707 -0.011077713 0.112549916 0.062006857
0002f0 0c fb f7 3c ef 6d b0 3d eb dc 93 3d fe d5 90 bb
       0.030271076 0.08614718 0.07219871 -0.004420041
000300 0a 35 34 bd 75 69 9a 3d a0 99 10 bc f8 5f 94 bd
       -0.043995894 0.075396456 -0.00882569 -0.07244867
000310 3b bd a3 bd bc c8 96 3c 1e 99 72 3d df 4d 80 3d
       -0.07995077 0.018406264 0.059228055 0.06264853
000320 ff 43 0d 3d 8e ac 0f 3d a6 0a 76 bd ac 57 a7 bd
       0.034488674 0.03507667 -0.06006875 -0.08171019
000330 3c cb 03 3d 40 b2 68 bd 20 3f 0e bb 24 7c 5f 3d
       0.03217624 -0.056810617 -0.0021705106 0.05456175
000340 92 a2 87 3c e0 9e 0f 3d 40 db 30 3b 31 78 ac bd
       0.016557012 0.035063624 0.0026986152 -0.08421362
000350 20 2a e8 3c 6a 89 6a bd 81 0b b3 bd 38 36 90 bc
       0.0283404 -0.057259955 -0.087424286 -0.017603979
000360 37 f5 22 bd bf e3 23 39 cb a7 b5 bd 6c ed 04 3d
       -0.039784636 0.00015629733 -0.088698946 0.032452986
000370 ff 5e 2e bd ba 14 2d bd ff 97 ae 3d e6 8d 73 bd
       -0.042571064 -0.042256095 0.08525085 -0.059461497
000380 24 78 7b bd 9a ec 8e 3c 7e 32 96 bd 56 27 0e 3d
       -0.061393872 0.017446805 -0.07333849 0.034705482
000390 d1 3a af bd a0 16 01 bb 28 65 99 bd 4e 75 29 3d
       -0.0855614 -0.0019697323 -0.07489997 0.041371636
0003a0 d9 67 58 3b 89 25 03 bd f6 3d 34 3e 31 f0 0e 3c
       0.0033020882 -0.03201822 0.17601761 0.008724258
0003b0 f4 99 b5 bd 50 30 60 bc 72 3a 79 bd 55 7d 41 3d
       -0.08867255 -0.013683394 -0.060846753 0.047238667
0003c0 9d 82 5a 3d 1c 5c d1 3c 1c 27 a6 3d 80 20 f4 3a
       0.05334722 0.025556616 0.08112928 0.0018625408
0003d0 98 5a d2 bc 68 94 3b bc 9c bd a8 3c 65 4f a9 3d
       -0.025677964 -0.011448957 0.020598225 0.082670964
0003e0 20 4b 19 bb ae 0d 43 bd 8e a3 37 3d cf 66 0b bd
       -0.0023390725 -0.047620468 0.044833712 -0.034033593
0003f0 47 f2 a6 be 9a fe 49 3c 83 93 c3 bb 43 f0 02 be
       -0.32606718 0.012328768 -0.0059685125 -0.12786965

linear2.bias f4 [65]
000000 ca ff 3f 3e 13 a6 2b bf aa ec 2f 3f a8 a9 a4 3d
       0.1874992 -0.67050284 0.68720496 0.08040172
000010 cc bc 58 3e 51 71 67 bd f1 05 aa 3d 49 26 16 3d
       0.2116577 -0.05650455 0.083019145 0.036657605
000020 1f 34 35 bd d3 92 bf 3d ca dc 09 3d 0d c0 53 3d
       -0.04423916 0.09354176 0.033657826 0.051696826
000030 ed a2 07 bd 69 75 b0 bd 17 12 bd 3c cc 89 20 3d
       -0.033114363 -0.08616144 0.023079915 0.039193913
000040 d4 6b 84 3d 43 b6 02 3f e6 fa 1f bf ef 66 6e 3d
       0.06465879 0.5105936 -0.62492216 0.058203634
000050 56 39 fc 3e 91 32 b9 3d 81 e2 01 3f ae fa cd bd
       0.49262494 0.09042848 0.5073624 -0.10057579
000060 c5 8d 5e bd a3 a3 70 bc fb 62 7b be 74 b8 09 3d
       -0.05433442 -0.0146874515 -0.24549477 0.033623174
000070 09 33 53 be 5f b7 8f bd c0 ce 40 bb 93 0a 93 3d
       -0.20624937 -0.07017397 -0.0029420108 0.07179751
000080 97 7e 6a 3d 2d 59 81 3d 6d 31 84 bd 60 15 f5 3e
       0.05724963 0.06315837 -0.0645474 0.4786787
000090 78 af 94 bd 51 07 9f bd 30 99 b3 bc 26 6d 7b 3d
       -0.072600305 -0.07765067 -0.021923631 0.06138339
0000a0 14 57 87 bc 14 be 1b 3c 6d 38 13 3f 00 fe ed bc
       -0.016521014 0.009505767 0.57507974 -0.02905178
0000b0 aa 4c 7e be 13 2e b5 3c 92 cc 38 3a f7 c6 ad bd
       -0.24833933 0.022116696 0.00070495263 -0.08485215
0000c0 02 0c fc be ae 33 fd be bc c6 fd bc 72 8a aa bd
       -0.4922791 -0.4945349 -0.030978553 -0.083271876
0000d0 18 33 0a bf bc 9a aa be 66 c5 20 3d 90 fe 51 be
       -0.5398421 -0.33321178 0.039250754 -0.20507264
0000e0 79 a4 80 ba f2 10 6a 3e 61 60 8d bc 04 06 0b bd
       -0.0009814642 0.22858027 -0.017257871 -0.033941284
0000f0 48 95 3a 3d 3a 02 df 3c 58 8c 16 3f 7b bc c6 3c
       0.045552522 0.027222741 0.588079 0.024259796
000100 d3 c7 a7 bb
       -0.0051202565

linear3.weight f4 [11, 65]
000000 7e a4 26 3c 9a e8 c3 bd 6d fc 6b be 56 ea 93 bd
       0.010171054 -0.095658496 -0.23045512 -0.072224304
000010 37 25 1e be f9 b7 06 bd ac 74 e6 bc e2 29 a5 3d
       -0.15443884 -0.032890294 -0.028131805 0.08064629
000020 a1 3d bb bd 45 2b f2 3e 5b 23 e5 3d 1d 3c 86 3d
       -0.09142614 0.47298637 0.11188384 0.065544344
000030 ee 64 3a bd 3f 71 3c 3d 72 bc b2 3d ab 55 29 bd
       -0.04550641 0.046006437 0.08727349 -0.041341465
000040 fa 12 c8 3c a6 65 89 3d 05 6c f4 3d 87 09 db bd
       0.024423111 0.06708841 0.119346656 -0.106951766
000050 b0 38 87 bd f9 b1 8e bd f3 e6 00 be b0 98 1f 3d
       -0.06602609 -0.06967539 -0.125881 0.038963974
000060 8d 18 53 3d 8f ac 98 3c e8 06 8e 3e 0b 6e 88 bc
       0.051537085 0.01863697 0.27739644 -0.016654035
000070 d6 d4 29 bd c8 ff 20 3d b0 84 91 bd d3 a1 87 bd
       -0.04146274 0.039306432 -0.07105386 -0.066226624
000080 dd dd 8d 3d 32 d7 4f 3c 6f 14 a3 be f9 0b 05 be
       0.06927083 0.012685584 -0.31851527 -0.12992848
000090 15 b5 21 bc 73 43 89 bd f4 da a5 bc c5 b6 a0 bd
       -0.0098698335 -0.06702318 -0.020246007 -0.078473605
0000a0 5c ec 3b bd 83 75 d3 bd 79 7c 18 bd 88 f8 c1 bd
       -0.045879707 -0.10325148 -0.03722808 -0.09471232
0000b0 a9 60 8a 3d ca 51 8c 3e d7 dc cd bd e5 85 fe 3c
       0.06756718 0.2740615 -0.100518875 0.031069705
0000c0 d1 f0 e7 3d a3 68 97 3d 1e d0 8b bc 86 cb 73 3d
       0.11325229 0.07393005 -0.017067011 0.059520267
0000d0 79 22 bc 3d 0d 95 de 3d 5a dd ef 3d 15 0c 01 3e
       0.09186263 0.10868273 0.11712141 0.12602265
0000e0 17 31 fe bc 70 77 dc bd 29 cb d9 3d d7 d4 9e 3c
       -0.031029267 -0.107649684 0.10634453 0.0193886
0000f0 64 66 a0 be 2b c5 66 bd 5f 63 c0 be 49 5d 8e 3d
       -0.31328118 -0.056340378 -0.37575814 0.069513865
000100 e2 4c 8c bc d9 90 c2 3d 43 d5 b1 ba 01 d2 64 be
       -0.017126504 0.09500284 -0.0013567585 -0.22345735
000110 ca b4 48 be 91 0c 39 3e c1 c9 89 bd e5 55 3c be
       -0.19600216 0.180712 -0.06727935 -0.18392141
000120 10 0e 77 3e f6 c5 ba bd b9 85 7e 3e 4d ec 88 be
       0.24126458 -0.09119789 0.24855699 -0.26742783
000130 a4 7f a5 3c f9 32 fc bd 94 10 0f bd 9a 02 9f be
       0.020202465 -0.1231441 -0.03492792 -0.31056672
000140 9b 53 4f bd c5 16 06 3d 41 f9 3d 3e b4 70 3b 3d
       -0.05061684 0.03273656 0.18552114 0.04576178
000150 9e 1f 5f 3d 3f 24 82 be f8 1d e9 3d b9 ef bd be
       0.054473512 -0.2541828 0.11382669 -0.37096956
000160 80 1c 7a bd 05 41 b7 bd b1 e6 84 3d 2f 0a 99 3e
       -0.061062336 -0.08947948 0.064893134 0.29890582
000170 87 07 8f bb 2a b8 99 3d b2 1f 9b bd b8 f6 2e 3d
       -0.004364911 0.0750583 -0.07574405 0.042715758
000180 de 57 32 3c 87 56 82 3d f2 61 80 bc 80 05 15 3e
       0.010885207 0.0636416 -0.015671704 0.1455288
000190 38 9f 31 3e 5e b7 ea 3d 7e 32 8b bd 75 1e 7f bd
       0.17345893 0.11460756 -0.0679674 -0.062284905
0001a0 86 69 da bd 6f 15 ff 3c 94 f7 83 3d 0d c5 38 3e
       -0.10664658 0.03113815 0.06443706 0.18043919
0001b0 e6 ec b2 3d 8c e5 6c be e2 bb 1a 3e 19 ff 5d 3d
       0.08736591 -0.2313444 0.15110734 0.05419836
0001c0 3f 0a 28 3d b0 e3 f0 bc 36 d5 0a 3d ae 59 6b 3c
       0.041025396 -0.029405445 0.03389474 0.014364643
0001d0 59 a8 ac bd 58 07 42 be 8d db e7 bc ba 7d d8 3c
       -0.08430547 -0.18948114 -0.028302932 0.026427139
0001e0 8f 25 54 be 98 50 f8 3c 0a 4d df 3d 72 a5 e7 3d
       -0.20717452 0.030311868 0.10903366 0.11310853
0001f0 a3 bf c5 3d 42 31 19 3e ef f2 33 bd 5a 50 57 3e
       0.096556924 0.14960197 -0.04393285 0.21026745
000200 cb b0 8e be 77 12 cf 3c 44 f4 ac 3d b2 01 64 bc
       -0.27869257 0.02527736 0.084450275 -0.01391642
000210 a8 05 dd 3d 75 75 1a 3d 60 de fe 3d 8f 34 9c bd
       0.107920945 0.037709672 0.124447584 -0.07627212
000220 32 e8 ac bd d1 f5 41 be f1 d3 e3 bd b6 56 b8 bd
       -0.08442725 -0.18941428 -0.11124409 -0.09000914
000230 5c a6 ee bc c9 b4 15 3c f5 2e 85 bd 9a c9 c1 bd
       -0.02913206 0.009137341 -0.06503097 -0.094622806
000240 ae c7 00 3f d5 17 e7 bd d7 e2 36 3c 4f 3f 7e be
       0.5030469 -0.112838425 0.011162481 -0.24828838
000250 d9 eb 8e 3d 0b 85 49 be f6 4b 5b 3c 33 40 02 3c
       0.06978578 -0.19679658 0.01338481 0.007949877
000260 6c 27 d8 3e 80 24 9f bd 2f 93 41 bd f9 4e be 3d
       0.42217577 -0.07770634 -0.047259506 0.092924066
000270 a5 dd 5e 3d ca 69 5e bd 10 de e9 3d 86 21 f3 3d
       0.054410595 -0.054300107 0.11419308 0.118716285
000280 dc 2b 03 3d e7 29 70 3d 27 8f 96 3d 6f b0 56 bb
       0.03202425 0.05863371 0.07351523 -0.0032758971
000290 8d d5 bb 3c aa 2c 08 bd 28 6e 67 bc 26 15 88 bd
       0.022928977 -0.03324572 -0.014125384 -0.06644659
0002a0 80 54 06 ba f5 c6 f0 bc 17 28 ef bd 2e 95 ed bd
       -0.0005124286 -0.029391745 -0.116775684 -0.116007194
0002b0 a6 42 f6 bd d6 b2 3e 3c a4 15 aa 3d 8f 4c 01 3d
       -0.12024431 0.0116393175 0.08304909 0.031567153
0002c0 70 eb 20 bd dd 8f 97 3d 64 2a 89 bd ac a2 cb bd
       -0.03928703 0.074004866 -0.066975385 -0.099431366
0002d0 1b 68 80 3e f3 5b b4 bd 20 47 88 3d ab 36 8c bd
       0.25079426 -0.088066004 0.06654191 -0.068463646
0002e0 8f ef 8a 3d 55 70 38 be ce ae f3 bc 68 4b 69 3e
       0.067839734 -0.18011601 -0.02974644 0.22782671
0002f0 f4 17 b3 bd 35 cd 62 bd cb 6c 44 3e 83 3e 4f bc
       -0.08744803 -0.055371482 0.19182126 -0.012649181
000300 42 f9 54 3e a8 68 e2 bc 30 08 1c bc 48 30 82 bb
       0.2079821 -0.027637795 -0.009523436 -0.0039730407
000310 92 a8 3a bd 3f 5d 2f 3e bf 66 fe bb 0c 7d 81 3c
       -0.045570917 0.17125414 -0.007763713 0.015806697
000320 b3 f4 69 bd f2 16 8e 3d e7 35 d6 3d 61 c6 1d bd
       -0.05711813 0.0693797 0.104595 -0.038519267
000330 52 4f 7f 3c ef c0 b7 bd d1 c8 2a bd df 60 da bd
       0.015582876 -0.08972346 -0.04169542 -0.10663008
000340 05 55 93 bd 71 fb be bd ce 42 3c bd d5 9a 19 bd
       -0.071939506 -0.093253024 -0.045962147 -0.037501175
000350 eb dd 84 be ed ac 66 3d 37 8e a9 bc 96 13 ae bd
       -0.2595056 0.05631726 -0.020697696 -0.084998295
000360 ab 40 a5 3d 57 c8 b3 be b6 ef 46 bd a7 d6 be 3b
       0.08068975 -0.35113785 -0.04856845 0.0058239284
000370 79 2c 65 bb 88 5f 9d bd 40 b0 92 3d 96 4f f6 bd
       -0.0034969135 -0.07684237 0.07162523 -0.120268986
000380 75 19 f0 bd ff be 8b bd f3 30 ce 3c b4 de a0 3d
       -0.117236055 -0.06823539 0.025169825 0.07854977
000390 56 a9 a5 3d 34 dd ce 3d 52 b1 04 be 17 75 c7 3d
       0.08088939 0.10100785 -0.12958267 0.0973913
0003a0 b7 b3 1a ba cb 77 f1 bd fc 4e fb 3d b7 3c 8d 3d
       -0.00059014134 -0.11790427 0.122709244 0.06896346
0003b0 7a 54 95 3d e8 63 e8 3d f1 26 05 3d c8 0f c8 bd
       0.07291503 0.113471806 0.03250784 -0.09768635
0003c0 4b 54 48 be ff 78 9c 3c df 6a 43 bd d0 db c3 3d
       -0.19563405 0.019100664 -0.047709342 0.0956341
0003d0 69 2c 26 3d 11 7c c8 bd 94 04 67 bd 0c 66 46 3c
       0.040569697 -0.09789289 -0.05640085 0.012109291
0003e0 5a 0e 9c be df ee ea 3d da ea 00 bc 1e 32 6a bd
       -0.304797 0.11471342 -0.007868493 -0.0571767
0003f0 ac 8d a2 3d 24 82 6b 3e 36 7e f9 3b ed e7 04 3e
       0.07937178 0.22998863 0.0076139225 0.12979098

linear3.bias f4 [11]
000000 65 93 d9 bc 84 49 b5 bd 7c 3d 11 bc 33 d2 af bd
       -0.026559541 -0.088519126 -0.008864757 -0.08585014
000010 e6 fa ef bc 76 69 1f bc 21 46 99 bd 1c 82 f2 bc
       -0.029294442 -0.009729734 -0.07484079 -0.029603057
000020 22 80 a8 be b5 99 19 bd b6 54 06 3f
       -0.32910258 -0.037500102 0.5247301
