resources/python/prototying/model_num_naked.pt (torch, 448384 bytes, 6 tensors)

weight f4 [128, 784]
-0.005350832 -0.010889083 -0.012014918 0.029323172 -0.013767043 0.01751373 -0.031046584 -0.016697764
0.03569108 0.02076324 0.011892606 0.026522174 -0.0071434807 0.025830224 0.019580748 0.0018373989
-0.033800386 -0.00689584 0.0052730367 -0.003690917 -0.011069238 -0.025217552 0.020670127 0.010231867
-0.027698606 0.02563418 0.012144975 0.003438212 -0.019179039 0.026832048 -0.012485122 0.0059902743
-0.010953115 -0.024919387 -0.030576907 -0.0036469735 -0.015322188 -0.032558095 0.031055216 0.010445882
-0.023222223 0.00041602924 -0.033266284 -0.010704534 0.029471163 0.015043251 0.018017624 -0.01774997
-0.026106864 -0.0066050086 0.011183415 0.032586854 0.021976631 0.008840211 -0.0014760308 -0.031178284
0.01729536 0.03446829 0.029195245 0.023177762 -0.026759531 -0.0016045906 -0.033075653 0.007710371
0.010860357 0.0322096 -0.022475874 0.02085355 -0.029504176 -0.027779955 -0.014985584 -0.020540293
-0.033877153 -0.019484758 -0.0012822971 0.02620919 -0.02446242 -0.034231324 0.011093676 -0.012554254
0.0135509595 0.0012566708 -0.0006251037 -0.029157389 -0.029647548 0.0012512021 -0.002514355 0.008978639
-0.009765472 -0.033904806 -0.014770931 -0.035413846 -0.028920272 -0.006443152 0.032073613 0.009381775
-0.0038096197 -0.027485661 0.002541814 -0.026873082 -0.027199823 0.02813765 0.015667744 -0.012016872
-0.032734483 -0.034722764 -0.017382432 -0.0123690795 -0.026249342 0.025616556 -0.017273044 0.011268027
-0.029660346 -0.031962045 0.019634891 0.018434417 -0.022899058 -0.016620278 0.003707569 -0.01915122
0.021231312 -0.032279916 0.01656685 -0.03036594 0.0065881982 0.0014979057 0.028992858 -0.012955496
0.024581522 -0.0022277795 -0.017187243 -0.030885885 -0.009414988 0.027768712 -0.012159467 -0.027153213
-0.012441052 -0.027680561 0.008320555 0.034814883 0.0037381053 -0.022263438 -0.026397834 -0.005639069
0.018473405 -0.025041837 -0.0025867932 -0.028281085 -0.034190305 0.031344604 -0.015319651 0.0130525865
0.02992541 -0.022982143 0.03488568 -0.02468988 -0.016635831 0.031273972 0.02069274 -0.0035361126
0.03258377 -0.0010364018 0.035650823 0.031990375 0.0045341626 0.015625365 0.020428356 0.012705628
0.019021235 0.0028998964 0.03021827 -0.034495097 0.029891405 0.0018336847 0.017929018 -0.025105558
0.008245267 -0.012914475 -0.029293314 -0.01914818 0.0010245182 0.009757198 -0.020524636 -0.024894614
-0.021780292 0.025523745 -0.026958114 -0.003688164 -0.008039938 0.023221638 0.025939524 -0.03379634
0.02565493 0.029098231 -0.032864254 -0.022461936 0.015627012 0.026860315 -0.017289776 0.010580625
-0.005629251 0.008603826 0.034439858 0.03314467 -0.023159292 -0.028085807 0.031375077 -0.007521676
0.0034934916 -0.009367416 0.017569218 -0.02394791 0.015137292 0.008822765 -0.035185747 0.02361153
0.026127938 -0.019768422 -0.012916468 -0.005972415 0.010487482 -0.03246524 0.0032800995 0.032185633
0.023887787 0.006656632 0.017646395 0.0045070574 0.017750803 0.025683552 -0.030550469 -0.021674544
-0.029016802 0.03262767 -0.02945927 0.034410667 0.030624222 0.00011473149 -0.024821065 0.011616126
-0.032949887 -0.0305955 -0.022780785 -0.020971019 -0.028967148 0.033913475 -0.0022940636 -0.002366785
0.013800845 -0.01597216 0.02178805 -0.026021913 0.032604035 -0.024239073 -0.014760315 0.0060824603
00000000: 0856 afbb 2068 32bc 38da 44bc 2637 f03c
00000010: 2a8f 61bc f478 8f3c 6855 febc c0c9 88bc
00000020: cf30 123d ac17 aa3c 34d9 423c 0845 d93c
00000030: dc13 eabb e899 d33c ce67 a03c e0d4 f03a
00000040: 4672 0abd 80f6 e1bb 70c9 ac3b 50e3 71bb
00000050: c05b 35bc 0a95 cebc 6654 a93c 90a3 273c
00000060: 30e8 e2bc c6fe d13c b8fb 463c a053 613b
00000070: 5c1d 9dbc e2ce db3c 668e 4cbc 104a c43b
00000080: b274 33bc be23 ccbc 6c7c fabc 1002 6fbb
00000090: ea09 7bbc a35b 05bd 8267 fe3c 3425 2b3c
000000a0: 883c bebc 801e da39 3a42 08bd 1262 2fbc
000000b0: 826d f13c f877 763c b299 933c 6368 91bc
000000c0: 10de d5bc d46e d8bb a43a 373c cb79 053d
000000d0: 5608 b43c 88d6 103c 6077 c1ba 9a69 ffbc
000000e0: 00af 8d3c 9f2e 0d3d de2a ef3c 4adf bd3c
000000f0: ce36 dbbc 2051 d2ba 567a 07bd 48a7 fc3b
00000100: a4ef 313c 37ee 033d 531f b8bc 10d5 aa3c
00000110: beb2 f1bc ca92 e3bc 1886 75bc 1e44 a8bc
00000120: c5c2 0abd 809e 9fbc c012 a8ba a8b4 d63c
00000130: 6a65 c8bc 2536 0cbd 40c2 353c 5cb0 4dbc
00000140: d804 5e3c e0b6 a43a 00de 23ba 7adb eebc
00000150: 6adf f2bc 60ff a33a e0c7 24bb 241b 133c
00000160: 5cff 1fbc c4df 0abd c601 72bc 1c0e 11bd
00000170: 35ea ecbc 1421 d3bb 9f5f 033d 04b6 193c
00000180: d0aa 79bb 9c29 e1bc 9094 263b f024 dcbc
00000190: 2ad2 debc ee80 e63c a459 803c 6ae2 44bc
000001a0: 9814 06bd 7539 0ebd 9a65 8ebc aea7 4abc
000001b0: dc08 d7bc d0d9 d13c 3380 8dbc 889d 383c
000001c0: 41fa f2bc a2ea 02bd 5ad9 a03c c603 973c
000001d0: ce96 bbbc 4027 88bc b0fa 723b 05e3 9cbc
000001e0: 4aed ad3c f237 04bd 34b7 873c fec1 f8bc
000001f0: d0e1 d73b 6055 c43a 6e82 ed3c 4a43 54bc
00000200: 305f c93c f0ff 11bb 43cc 8cbc 6504 fdbc
00000210: 5241 1abc 367b e33c 8038 47bc 6a70 debc
00000220: 8ed5 4bbc 58c2 e2bc f052 083c 0d9a 0e3d
00000230: 00fb 743b d061 b6bc 4540 d8bc f0c7 b8bb
00000240: 8a55 973c 8a24 cdbc 3087 29bb bcad e7bc
00000250: 220b 0cbd 3363 003d 46ff 7abc 84da 553c
00000260: 2226 f53c 0c45 bcbc 49e4 0e3d 6e42 cabc
00000270: de47 88bc 2319 003d d283 a93c 20be 67bb
00000280: 8f76 053d e0d7 87ba 9906 123d 5708 033d
00000290: 5093 943b c400 803c 5e59 a73c 442b 503c
000002a0: 6cd2 9b3c 300c 3e3b 4e8c f73c bb4a 0dbd
000002b0: d2de f43c 4058 f03a e0df 923c 2caa cdbc
000002c0: 2817 073c 3c97 53bc 88f8 efbc a5dc 9cbc
000002d0: 2049 863a a8dc 1f3c 4823 a8bc caef cbbc
000002e0: 956c b2bc 2c17 d13c 43d7 dcbc 20b5 71bb
000002f0: f2b9 03bc 4e3b be3c 207f d43c 086e 0abd
00000300: 4a2a d23c 6a5f ee3c ab9c 06bd 1802 b8bc
00000310: 3804 803c 2a0a dc3c 4aa3 8dbc 5c5a 2d3c
00000320: 9475 b8bb 10f7 0c3c cf10 0d3d b5c2 073d
00000330: 8eb8 bdbc 3514 e6bc 2783 003d 6478 f6bb
00000340: 10f3 643b ca79 19bc 52ed 8f3c 682e c4bc
00000350: 6802 783c 5c8d 103c ee1e 10bd f86c c13c
00000360: 420a d63c 63f1 a1bc 989f 53bc 40b4 c3bb
00000370: b0d3 2b3c 46fa 04bd f0f6 563b 15d5 033d
00000380: 52b0 c33c e01f da3b 2c8f 903c f0af 933b
00000390: 226a 913c 5066 d23c fa44 fabc d08e b1bc
000003a0: a5b4 edbc 97a4 053d 9154 f1bc 33f2 0c3d
000003b0: a6df fa3c 009c f038 8c55 cbbc 9051 3e3c
000003c0: 76f6 06bd 6aa3 fabc c59e babc 6acb abbc
000003d0: 834c edbc dbe8 0a3d 0058 16bb 101c 1bbb
000003e0: f01c 623c 0cd8 82bc da7c b23c e82b d5bc
000003f0: cf8b 053d 0591 c6bc 40d5 71bc 604f c73b

bias f4 [128]
0.01457496 0.013984695 -0.013511892 -0.015208542 -0.013375061 -0.012300981 0.007684201 -0.031786144
-0.02815584 -0.010374257 -0.009916961 -0.010692682 -0.00728878 -0.0071976017 -0.0061965752 -0.014206814
0.01447751 0.03092013 -0.008227974 0.019988019 0.0062372163 -0.026222635 0.024307553 0.001469437
0.026888449 0.0137965605 0.02857503 0.012910821 0.03062911 0.016606484 -0.02932957 -0.02913258
0.015834257 0.03216255 0.017367054 0.018113792 0.014219794 0.016165309 -0.020690173 0.033262726
0.023595091 0.03330576 0.027903344 -0.0077609885 -0.00034638867 -0.033548012 0.012777187 0.03264351
-0.020980546 0.021481 0.0013038702 -0.028543891 -0.021789521 -0.020346591 0.03562175 0.0066000298
0.011304636 0.00846165 -0.033730906 -0.025053725 -0.025798798 0.0006470904 0.034789655 -0.017139792
-0.008446246 0.0066291317 -0.03432694 0.031794917 -0.017366624 0.00968685 -0.0032486543 -0.0088026095
0.023882303 -0.013196742 -0.009067731 -0.026160318 -0.029059237 0.033082608 -0.001979094 -0.0063788164
-0.0017619468 -0.015452437 -0.0015658103 0.003992237 -0.015292594 0.01414432 -0.01130796 0.009169854
-0.022197213 -0.001316566 -0.022244595 -0.00490281 -0.028746193 -0.0080375 -0.026595585 -0.01718081
0.004866153 -0.03535061 0.030156102 -0.004120793 -0.016961018 -0.0033731833 0.020506352 0.024635818
-0.005741136 -0.030650979 -0.021824703 -0.010425044 -0.010975553 -0.025217393 0.026928376 -0.005998254
0.01670098 -0.03048242 0.013887409 0.019298602 -0.0011305548 -0.0019392706 -0.02437813 0.011378981
-0.007777985 0.01816617 -0.021259744 0.03191447 -0.018094439 0.017291967 0.019178506 -0.0067136846
00000000: d0cb 6e3c 1020 653c fc60 5dbc 402d 79bc
00000010: 1223 5bbc 0e8a 49bc c0cb fb3b 3032 02bd
00000020: 13a7 e6bc caf8 29bc c07a 22bc 5c30 2fbc
00000030: b8d6 eebb dcd9 ebbb a40c cbbb b2c3 68bc
00000040: 1433 6d3c 364c fd3c a0ce 06bc eabd a33c
00000050: 9061 cc3b dad0 d6bc a220 c73c 209a c03a
00000060: 2a45 dc3c f80a 623c 2e16 ea3c e887 533c
00000070: e6e9 fa3c 520a 883c 9144 f0bc 73a7 eebc
00000080: d8b6 813c e1bc 033d 5a45 8e3c 6063 943c
00000090: 24fa 683c 1c6d 843c 707e a9bc 7f3e 083d
000000a0: 7e4a c13c 9f6b 083d 8e95 e43c e44f febb
000000b0: 809b b5b9 a469 09bd 6857 513c 33b5 053d
000000c0: 65df abbc ecf8 af3c a0e6 aa3a e1d4 e9bc
000000d0: f07f b2bc e5ad a6bc 1de8 113d 1045 d83b
000000e0: 1437 393c bca2 0a3c 6b29 0abd 783d cdbc
000000f0: 0058 d3bc 80a1 293a 997f 0e3d c068 8cbc
00000100: 2062 0abc 3039 d93b 689a 0cbd 633b 023d
00000110: 7344 8ebc 98b5 1e3c 60e7 54bb d238 10bc
00000120: d2a4 c33c 2637 58bc d290 14bc 2a4e d6bc
00000130: a30d eebc a181 073d b0b3 01bb 6405 d1bb
00000140: 20f1 e6ba 382c 7dbc e03b cdba 50d1 823b
00000150: ca8d 7abc 94bd 673c 0645 39bc 283d 163c
00000160: eed6 b5bc a090 acba 4c3a b6bc c0a7 a0bb
00000170: 237d ebbc b8af 03bc fcde d9bc c5be 8cbc
00000180: 4074 9f3b cdcb 10bd ee09 f73c b807 87bb
00000190: d5f1 8abc a010 5dbb f0fc a73c 0ed1 c93c
000001a0: 2420 bcbb c317 fbbc b8c9 b2bc cecd 2abc
000001b0: ced2 33bc b594 cebc e698 dc3c 008d c4bb
000001c0: 7ed0 883c 45b6 f9bc 0488 633c 1a18 9e3c
000001d0: 202f 94ba 202f feba a5b4 c7bc e86e 3a3c
000001e0: 78de febb 38d1 943c ea28 aebc bfb8 023d
000001f0: ca3a 94bc e2a7 8d3c 3e1c 9d3c 78fe dbbb

weight f4 [64, 128]
0.018608518 0.049558066 0.06030955 0.037685134 0.052040048 -0.010599114 0.05893115 -0.007901251
-0.08004756 0.08806359 0.06785401 0.062126793 -0.012833782 0.075583465 -0.010139257 0.003019631
0.06381709 0.05680301 -0.0803858 0.043719478 -0.02911264 0.06547297 -0.0036819577 0.012274437
0.07920294 0.07300391 0.061447762 -0.039342176 0.027323373 -0.0035558566 -0.0795819 -0.047892094
-0.00796295 0.02148386 0.057579778 0.03248065 0.046762608 -0.0105530545 -0.01993072 -0.00071291625
0.047659524 0.07646883 -0.033657156 0.06915552 -0.026711006 0.041037433 -0.06741599 -0.020579621
-0.07272388 0.06548064 -0.06500321 0.043607928 0.005135931 0.088125534 -0.08747164 0.013958581
-0.07196861 0.073235996 0.07191599 0.03755278 0.005779594 0.048510693 -0.017349698 -0.07995764
0.053887434 -0.006518148 0.03310904 0.08341258 0.046073146 0.032229207 -0.042657014 0.07141752
0.05076223 -0.028691836 0.017698318 -0.020056643 0.029104337 -0.042994715 0.088023655 -0.011026882
0.060681246 0.041974597 -0.056612972 0.008951023 0.0056815445 0.08061754 -0.045502413 0.050458305
0.024340004 -0.0061479285 -0.06302273 -0.022865623 0.031586282 -0.06618941 -0.003967449 -0.011331663
-0.027680323 0.011290073 0.023900695 -2.6412308e-05 -0.07354405 0.03366366 0.031370193 0.085949145
-0.011928864 -0.019790389 0.0149021745 0.0062557906 0.011599056 0.04295794 -0.035455845 -0.0747157
0.0092071295 -0.039002325 0.080817394 0.0126268715 -0.065636635 0.056403898 -0.05221418 0.007974438
0.08310235 0.07955103 -0.032747827 0.030449085 0.00849355 -0.009602107 0.06529171 -0.049734283
0.057051666 0.03200253 0.06294959 -0.027149841 -0.050303094 0.047791444 -0.06525144 -0.08673997
0.041196264 -0.088125825 -0.021923557 0.046241336 -0.011153929 -0.07767162 0.04371815 -0.003723599
0.0383564 0.039852343 -0.040767096 0.026598252 -0.07520667 -0.050120547 0.036543645 -0.08182278
0.02335392 -0.07255782 -0.036079157 0.08453251 -0.03060443 0.009797923 0.06910347 0.08131044
0.06087262 0.061921097 -0.022959612 -0.08026852 -0.0030532628 -0.061433353 0.03257508 -0.06152615
0.055367373 -0.005594708 -0.084027335 0.07576204 0.06838963 0.006615214 -0.00496839 -0.013943166
0.014193401 0.07775975 0.044182174 0.019993223 -0.04565195 0.03909204 0.016438328 0.06271403
-0.08745348 0.029308707 -0.03833695 0.059241615 -0.036017686 0.006006308 -0.0069932267 0.038247786
-0.0800244 -0.086375505 -0.045756694 -0.008449368 -0.04087861 0.05392521 0.007202886 0.010350667
-0.03771067 0.07325443 0.08022968 0.06738939 -0.0341885 0.03396809 -0.026234318 0.024799235
0.06970417 -0.05853334 -0.04884808 0.018631257 0.085175 0.073552154 0.02535642 0.0818898
-0.047690812 0.037192203 -0.039254267 -0.08038613 0.06590863 -0.068052694 -0.06693517 -0.036158994
-0.012618668 0.07438048 -0.0375942 -0.010077395 0.08733071 0.080321334 -0.065333314 -0.052585464
0.0756351 0.07754121 0.062789835 0.011945777 0.066927485 0.030545339 -0.0156563 -0.07616128
-0.023013666 0.021397382 -0.02498915 0.021969773 -0.0024782345 0.0807439 -0.004387021 -0.032784864
-0.06989199 -0.024074294 -0.023898065 -0.03699328 -0.048848405 -0.06043996 0.006770082 -0.0084846765
00000000: e470 983c 66fd 4a3d 2607 773d ba5b 1a3d
00000010: f227 553d e8a7 2dbc ca61 713d 4074 01bc
00000020: faef a3bd af5a b43d 0bf7 8a3d aa78 7e3d
00000030: c844 52bc 81cb 9a3d 201f 26bc 00e5 453b
00000040: 89b2 823d 46aa 683d 4fa1 a4bd 3213 333d
00000050: a27d eebc b116 863d 004d 71bb b81a 493c
00000060: 2735 a23d 1383 953d a6b0 7b3d 4325 21bd
00000070: 44d5 df3c 6009 69bb d6fb a2bd 802a 44bd
00000080: 0877 02bc ecfe af3c c6d8 6b3d 6e0a 053d
00000090: 268a 3f3d b8e6 2cbc c045 a3bc 00e3 3aba
000000a0: a236 433d b19b 9c3d 16dc 09bd 69a1 8d3d
000000b0: 0ad1 dabc de16 283d 6511 8abd 9896 a8bc
000000c0: 42f0 94bd b71a 863d 6720 85bd 3a9e 323d
000000d0: 504b a83b 297b b43d 5524 b3bd 88b2 643c
000000e0: 4764 93bd c1fc 953d b148 933d f2d0 193d
000000f0: c062 bd3b 26b3 463d f420 8ebc d5c0 a3bd
00000100: 12b9 5c3d 3096 d5bb 589d 073d 37d4 aa3d
00000110: 32b7 3c3d c602 043d 1fb9 2ebd 5943 923d
00000120: 0eec 4f3d 240b ebbc 10fc 903c d44d a4bc
00000130: 386c ee3c 3a1b 30bd bf45 b43d 18aa 34bc
00000140: e68c 783d 8eed 2b3d 01e3 67bd 50a7 123c
00000150: 402c ba3b cf1a a53d bd60 3abd 5ead 4e3d
00000160: b064 c73c 9074 c9bb 1012 81bd b050 bbbc
00000170: 9e60 013d 508e 87bd 6001 82bb 70a8 39bc
00000180: d8c1 e2bc 00fa 383c 64cb c33c 0090 ddb7
00000190: 439e 96bd e8e2 093d 087e 003d 1b06 b03d
000001a0: 4871 43bc 741f a2bc 4028 743c 60fd cc3b
000001b0: f809 3e3c aaf4 2f3d 263a 11bd 8b04 99bd
000001c0: 80d9 163c e7c0 1fbd 9783 a53d f0e0 4e3c
000001d0: 806c 86bd c607 673d 89de 55bd 38a7 023c
000001e0: 9131 aa3d a7eb a23d 9622 06bd 5c70 f93c
000001f0: 8828 0b3c 2852 1dbc a9b7 853d 2db6 4bbd
00000200: 02af 693d 1615 033d b7eb 803d 5869 debc
00000210: 9e0a 4ebd f6c0 433d 8ca2 85bd baa4 b1bd
00000220: 6abd 283d 507b b4bd 0899 b3bc 8e67 3d3d
00000230: f8be 36bc 4c12 9fbd ce11 333d a007 74bb
00000240: 9a1b 1d3d 363c 233d 66fb 26bd 94e4 d93c
00000250: f405 9abd 344b 4dbd caae 153d b492 a7bd
00000260: b850 bf3c 3299 94bd bdc7 13bd 611f ad3d
00000270: 24b6 fabc 7887 203c 1f86 8d3d 1786 a63d
00000280: 9255 793d faa0 7d3d cc15 bcbc d263 a4bd
00000290: 4019 48bb 8aa1 7bbd 726d 053d d802 7cbd
000002a0: e6c8 623d d053 b7bb 8616 acbd 2129 9b3d
000002b0: dd0f 8c3d 70c4 d83b e0cd a2bb e071 64bc
000002c0: 708b 683c 8140 9f3d 5ef8 343d d4c8 a33c
000002d0: 8afd 3abd fa1e 203d aca9 863c 3770 803d
000002e0: cf1a b3bd d018 f03c 3507 1dbd 56a7 723d
000002f0: 4887 13bd 90d0 c43b 7027 e5bb b6a9 1c3d
00000300: d5e3 a3bd a4e5 b0bd 5f6b 3bbd 386f 0abc
00000310: 5470 27bd aee0 5c3d 3006 ec3b d895 293c
00000320: 8176 1abd 6b06 963d 754f a43d 7303 8a3d
00000330: 3e09 0cbd 2022 0b3d 5ae9 d6bc c427 cb3c
00000340: 0fc1 8e3d a8c0 6fbd ed14 48bd 94a0 983c
00000350: 3b70 ae3d 83a2 963d 44b8 cf3c d7b5 a73d
00000360: 7157 43bd da56 183d 15c9 20bd 7ca1 a4bd
00000370: 1bfb 863d 365f 8bbd 4e15 89bd 741b 14bd
00000380: 88be 4ebc cb54 983d 60fc 19bd a81b 25bc
00000390: 71da b23d 837f a43d 79cd 85bd db63 57bd
000003a0: 93e6 9a3d edcd 9e3d f597 803d 38b8 433c
000003b0: 4711 893d 383a fa3c a441 80bc 72fa 9bbd
000003c0: 2887 bcbc 9049 af3c 0cb6 ccbc f4f9 b33c
000003d0: e069 22bb 0f5d a53d 00c1 8fbb 6c49 06bd
000003e0: 8823 8fbd 7437 c5bc e0c5 c3bc 4486 17bd
000003f0: 4415 48bd e48f 77bd 90d7 dd3b 5003 0bbc

bias f4 [64]
0.03288064 0.00516209 -0.001113385 -0.01645235 -0.077211216 -0.08734397 0.041897513 0.076239266
-0.060023203 0.04856191 -0.032569755 0.04888902 -0.042041082 -0.0011048764 -0.03129496 -0.07644419
0.039127357 0.084549196 0.07409071 -0.0838194 -0.034395106 -0.0795304 0.08373233 -0.037086267
-0.08233953 -0.08337091 0.030032508 0.07339529 0.011427082 -0.015874967 0.045875616 -0.06822543
0.025371 0.052128695 -0.027201448 0.08731375 0.013944969 -0.030195192 -0.051367853 0.029121049
-0.027588125 -0.07327221 -0.043520518 0.013599724 -0.07988218 -0.038315773 -0.07057679 -0.082567856
0.068768464 0.07525837 -0.052534856 -0.03765768 0.02533719 -0.010905929 0.018098056 -0.024453461
-0.04088497 -0.00107079 0.059647225 0.06256095 -0.06379394 0.02271495 -0.05732596 0.058136113
00000000: daad 063d c026 a93b 00ef 91ba 14c7 86bc
00000010: ea20 9ebd 65e1 b2bd ba9c 2b3d 5523 9c3d
00000020: e4da 75bd dae8 463d dd67 05bd da3f 483d
00000030: 4533 2cbd 80d1 90ba 252f 00bd c68e 9cbd
00000040: 0244 203d 2128 ad3d dfbc 973d 81a9 abbd
00000050: e2e1 0cbd d6e0 a2bd db7b ab3d c5e7 17bd
00000060: a1a1 a8bd 5ebe aabd bc06 f63c 4550 963d
00000070: a838 3b3c 380c 82bc 12e8 3b3d c6b9 8bbd
00000080: d8d6 cf3c e684 553d 92d5 debc 8dd1 b23d
00000090: 7079 643c e85b f7bc 1967 52bd 448f ee3c
000000a0: 7e00 e2bc be0f 96bd 9242 32bd 60d1 5e3c
000000b0: 4599 a3bd 00f1 1cbd 908a 90bd 5619 a9bd
000000c0: 7bd6 8c3d 0f21 9a3d ca2e 57bd f13e 1abd
000000d0: f08f cf3c c8ae 32bc 6042 943c a052 c8bc
000000e0: 0077 27bd c059 8cba a650 743d f51f 803d
000000f0: 66a6 82bd b414 ba3c a0ce 6abd 2220 6e3d

weight f4 [11, 64]
-0.023096263 0.11175743 0.017390877 -0.04284659 0.0034204125 -0.06892678 -0.09023443 -0.11215472
-0.07289623 0.08350748 0.041552454 -0.057518616 -0.11856823 0.114095345 0.096976444 -0.046504125
-0.12498826 0.056679398 0.09188399 0.07484336 0.07816416 0.005819708 0.10674928 0.092191115
-0.04996799 -0.055185497 -0.115223005 -0.11258708 -0.025405139 0.004825324 0.10992794 0.04414265
-0.05227284 -0.0480579 -0.061047316 -0.061128438 0.09551799 0.03800474 0.057921797 -0.0011104643
-0.015038118 -0.0082293 0.016224355 -0.109896764 0.10455166 -0.0043340772 0.124948844 0.05840388
0.10479513 0.058836132 -0.07875095 0.005666867 -0.1118623 0.08756901 -0.051137686 -0.017515197
-0.11857428 0.07735771 0.113723785 0.06884009 -0.10573198 0.0456596 -0.01938495 -0.08103742
0.06398372 -0.0043167323 -0.030839577 -0.10226251 0.09632422 -0.0448457 0.09707573 0.111497924
0.08644445 0.027407706 -0.040633783 -0.09652816 0.02715087 0.10532266 0.105451256 -0.046404555
0.008191586 -0.09661494 -0.06629169 -0.035437167 0.054928258 0.056474432 0.06012754 -0.1116662
-0.112808764 0.124882236 -0.09937942 0.114448786 -0.112660065 -0.0409984 -0.099279985 0.031330436
0.037999302 0.11873919 -0.12355758 0.08116487 0.091190204 -0.019824326 -0.07963367 -0.07906777
0.025927156 0.095301196 -0.041611597 0.08134 0.10054174 -0.06848049 0.072778046 0.11217676
0.08870976 0.01919195 -0.011715993 0.08035247 -0.08246814 -0.08381376 0.007715881 -0.0391151
-0.045762137 0.016369522 0.101245746 -0.07682575 0.056291774 0.019784898 0.013855904 -0.060026765
-0.0042655915 0.074322954 -0.040341973 -0.10270172 -0.016213983 -0.024580762 0.035190597 -0.10999453
0.008161366 0.05155222 0.008305222 0.0930057 0.053613245 0.030272081 -0.008126259 0.014886871
-0.05496922 -0.06593871 0.028742105 0.06839888 0.06457706 -0.043674275 -0.060453266 -0.11634469
0.03275259 -0.06869826 -0.020471081 -0.06743741 -0.0408199 -0.11623347 0.08386056 -0.0642934
-0.09891431 -0.09152502 0.032158047 0.06085983 -0.022579491 0.098945856 -0.030593485 -0.032442406
0.0014157146 0.031421557 0.014880136 0.11350377 -0.024731606 0.030032068 -0.117701784 0.08652562
-0.11951201 0.069789976 -0.08355111 0.020908296 0.11661492 0.10297911 -0.10808191 -0.025190577
0.01942186 0.054629922 -0.039174587 -0.0584165 0.0060085803 -0.053492293 -0.12023829 -0.122866526
0.0070860386 -0.0997701 0.024484023 -0.06804149 0.015260562 -0.1229454 -0.08439499 -0.07684383
-0.12405905 0.05049792 0.12317021 -0.052485496 -0.07567856 0.10862054 -0.07467082 0.11590493
-0.0020395666 -0.023723975 0.108178526 0.0014974624 -0.06600934 -0.093525216 -0.0341022 0.04056613
0.08546604 -0.07194096 0.12398711 -0.027702466 -0.02843073 -0.046803415 0.092905566 0.011398718
-0.051598057 0.07812844 0.034815654 -0.06320676 0.01683566 -0.09432168 -0.10478741 0.07427496
-0.08908369 -0.064927295 -0.013939679 -0.11116369 -0.0005925596 -0.06291954 0.08680749 0.020154
-0.009241059 -0.00585334 0.058841586 0.02093169 -0.098712385 0.10071249 -0.07402192 -0.023902148
-0.028823853 0.10117975 -0.028353095 -0.1115205 -0.0005466342 0.050558522 -0.021003932 -0.11786981
00000000: 6034 bdbc 14e1 e43d 5077 8e3c e87f 2fbd
00000010: 0029 603b 7c29 8dbd d4cc b8bd 60b1 e5bd
00000020: 9e4a 95bd f805 ab3d e832 2a3d a498 6bbd
00000030: e6d3 f2bd d2aa e93d 969b c63d 1c7b 3ebd
00000040: d8f9 ffbd a828 683d ac2d bc3d 7a47 993d
00000050: 8814 a03d 40b3 be3b 5e9f da3d b2ce bc3d
00000060: 3cab 4cbd 300a 62bd 0afa ebbd 0e94 e6bd
00000070: 701e d0bc c01d 9e3b e621 e13d ecce 343d
00000080: 0c1c 56bd 5cd8 44bd c00c 7abd d061 7abd
00000090: f09e c33d dcaa 1b3d 683f 6d3d 008d 91ba
000000a0: 7062 76bc 30d4 06bc f0e8 843c 8e11 e1bd
000000b0: 2e1f d63d e004 8ebb 2ee5 ff3d e838 6f3d
000000c0: d49e d63d 28fe 703d 2e48 a1bd 20b1 b93b
000000d0: 1018 e5bd 6257 b33d c075 51bd 087c 8fbc
000000e0: 12d7 f2bd b86d 9e3d 04e8 e83d 08fc 8c3d
000000f0: 028a d8bd 9005 3b3d 30cd 9ebc f2f6 a5bd
00000100: e609 833d 6073 8dbb 48a3 fcbc 026f d1bd
00000110: a245 c53d 20b0 37bd a4cf c63d 0659 e43d
00000120: ca09 b13d 2086 e03c 9c6f 26bd 8eb0 c5bd
00000130: 806b de3c 68b3 d73d d4f6 d73d b412 3ebd
00000140: 0036 063c 0ede c5bd f0c3 87bd 9026 11bd
00000150: 74fc 603d bc51 673d 4c48 763d 40b1 e4bd
00000160: 4808 e7bd 42c2 ff3d 7087 cbbd 2064 ea3d
00000170: 52ba e6bd f0ed 27bd 4e53 cbbd 5854 003d
00000180: 28a5 1b3d 882d f33d c20b fdbd c439 a63d
00000190: eec1 ba3d a066 a2bc fa16 a3bd 48ee a1bd
000001a0: 3065 d43c 462d c33d ec70 2abd 9695 a63d
000001b0: d4e8 cd3d 803f 8cbd a80c 953d eebc e53d
000001c0: 76ad b53d 7038 9d3c 70f4 3fbc d68f a43d
000001d0: 0ee5 a8bd 8ca6 abbd 80d5 fc3b 2837 20bd
000001e0: 1471 3bbd 6019 863c ee59 cf3d d256 9dbd
000001f0: 3492 663d f013 a23c e003 633c a0de 75bd
00000200: 60c6 8bbb a236 983d a03d 25bd 4855 d2bd
00000210: 30d3 84bc 985d c9bc 0424 103d d044 e1bd
00000220: 40b7 053c 6c28 533d a012 083c c679 be3d
00000230: 9099 5b3d 28fd f73c 0024 05bc 10e8 733c
00000240: 6827 61bd e00a 87bd 9074 eb3c b614 8c3d
00000250: fa40 843d cce3 32bd d89d 77bd 2046 eebd
00000260: 9427 063d acb1 8cbd f8b2 a7bc a01c 8abd
00000270: c432 27bd d00b eebd 16bf ab3d 42ac 83bd
00000280: 9693 cabd 7871 bbbd 28b8 033d 2848 793d
00000290: a0f8 b8bc 20a4 ca3d 309f fabc 54e2 04bd
000002a0: 808f b93a e4b3 003d d0cb 733c aa74 e83d
000002b0: f099 cabc d005 f63c a20d f1bd 5834 b13d
000002c0: b6c2 f4bd 0cee 8e3d d81c abbd e047 ab3c
000002d0: ced3 ee3d b6e6 d23d 0c5a ddbd 785c cebc
000002e0: 981a 9f3c a0c3 5f3d 8875 20bd 2446 6fbd
000002f0: a0e3 c43b bc1a 5bbd 7e3f f6bd 72a1 fbbd
00000300: 0032 e83b 4454 ccbd b892 c83c 5659 8bbd
00000310: 7007 7a3c ccca fbbd 48d7 acbd 4c60 9dbd
00000320: ac12 febd e8d6 4e3d aa40 fc3d 08fb 56bd
00000330: 5cfd 9abd 7274 de3d 04ed 98bd 905f ed3d
00000340: 40aa 05bb c858 c2bc b48c dd3d 8046 c43a
00000350: e82f 87bd 268a bfbd c0ae 0bbd ac28 263d
00000360: d208 af3d c855 93bd f4ec fd3d 48f0 e2bc
00000370: 90e7 e8bc f0b4 3fbd 4645 be3d b0c1 3a3c
00000380: 7c58 53bd ce01 a03d dc9a 0e3d 8c72 81bd
00000390: f0ea 893c ba2b c1bd c89a d6bd 781d 983d
000003a0: 8271 b6bd 9af8 84bd 4063 64bc caa9 e3bd
000003b0: 0056 1bba f6db 80bd 20c8 b13d 001a a53c
000003c0: d067 17bc 60cd bfbb e003 713d f078 ab3c
000003d0: b829 cabd 5a42 ce3d ce98 97bd 70ce c3bc
000003e0: 0020 ecbc 5437 cf3d c044 e8bc dc64 e4bd
000003f0: 004c 0fba 7416 4f3d 7010 acbc ba65 f1bd

bias f4 [11]
0.094805434 0.103647724 -0.059807688 -0.060448736 -0.014238447 -0.10319884 0.09905779 -0.06639287
0.026964247 -0.06728694 0.0285182
00000000: 5a29 c23d 4245 d43d e8f8 74bd 1899 77bd
00000010: 6048 69bc ea59 d3bd d0de ca3d fcf8 87bd
00000020: 20e4 dc3c bccd 89bd 009f e93c
